system_ext/etc/model_0428.onnx (onnx, 257969 bytes, 12 tensors)

pe f4 [1, 15, 1]
0.009268923 0.005686036 0.0012478794 -0.0033305753 -0.005443563 -0.0057115895 -0.0050843037 -0.004267409
-0.0034361752 -0.0027849025 -0.002444464 -0.0025943252 -0.0005578915 0.0025854558 0.007794401
00000000: aedc 173c ed51 ba3b e28f a33a c845 5abb
00000010: eb5f b2bb 4928 bbbb 3b9a a6bb 9fd5 8bbb
00000020: 7431 61bb e982 36bb 4d33 20bb 8e05 2abb
00000030: 773f 12ba c070 293b 2d68 ff3b

linear_layer.weight f4 [2, 64]
0.09174292 0.1719575 0.12251002 -0.1672431 -0.052907117 -0.08497303 -0.12091332 0.041277405
-0.1654547 -0.12264576 0.15582667 -0.111381926 -0.15992776 0.10794527 -0.122808814 -0.1609612
0.14584139 -0.06297165 -0.0865512 0.14484234 -0.16650227 0.03511092 0.13403901 -0.015721494
0.051794812 -0.04386176 -0.12313208 0.12562837 -0.12434963 0.09603655 -0.15016282 0.14086758
0.1352009 0.058114666 -0.1593696 0.16275358 -0.08384823 -0.0019304613 0.07908247 0.11694705
0.008778373 0.101043776 0.081761256 -0.0672463 -0.01644757 -0.08205985 0.019354189 0.0084009925
-0.15535788 -0.035491962 -0.15557134 0.112274595 -0.0566462 0.03037278 0.019332983 -0.11368543
0.1568603 -0.109638624 0.119698435 -0.01592403 -0.010029251 -0.123128034 -0.042935405 0.027362224
0.046028905 -0.0997235 -0.11787667 0.034932505 0.051777523 0.069156416 0.083892174 0.0115287015
-0.06875846 0.0026573252 -0.020329097 0.0812903 -0.007976372 0.025598919 0.070777245 0.14101735
-0.12981623 0.05176847 0.13887058 -0.08987321 -0.06617381 -0.16767812 -0.16505584 -0.13793069
-0.15449442 0.09765311 0.17236164 -0.095893644 0.0617906 -0.06305952 0.14501224 -0.19559678
-0.13558848 -0.10908432 0.17007735 0.026482724 0.04221327 -0.089706965 0.14988725 -0.030798221
-0.08633404 -0.033355303 -0.15021174 -0.14682071 -0.090293 -0.13017122 0.004556757 0.11232144
-0.063626 0.09612416 0.024240246 -0.0010441272 0.13425139 0.07262911 0.1647233 -0.031344652
-0.07923182 0.09870449 0.037896473 0.17303717 -0.11750693 -0.052172672 0.14347887 -0.13756804
00000000: b6e3 bb3d a015 303e 89e6 fa3d c641 2bbe
00000010: 22b5 58bd 5706 aebd 67a1 f7bd 7f12 293d
00000020: f56c 29be b32d fbbd 0791 1f3e 351c e4bd
00000030: 1ac4 23be 6912 dd3d 3083 fbbd 03d3 24be
00000040: 7257 153e 48f7 80bd c141 b1bd 8d51 143e
00000050: 927f 2abe 78d0 0f3d 8641 093e 5dca 80bc
00000060: cc26 543d 64a8 33bd ac2c fcbd b9a4 003e
00000070: 05ab febd d0ae c43d 48c4 19be 973f 103e
00000080: 1b72 0a3e a509 6e3d c931 23be e0a8 263e
00000090: 9fb8 abbd 8807 fdba fdf5 a13d ef81 ef3d
000000a0: 2ad3 0f3c 0af0 ce3d 7272 a73d 6eb8 89bd
000000b0: 0ebd 86bc ff0e a8bd ad8c 9e3c 51a4 093c
000000c0: 2316 1fbe 0560 11bd 184e 1fbe 39f0 e53d
000000d0: d905 68bd 56d0 f83c 3460 9e3c e8d3 e8bd
000000e0: fd9f 203e 378a e0bd 7424 f53d 1d73 82bc
000000f0: ba51 24bc 8d2a fcbd 09dd 2fbd be26 e03c
00000100: ce88 3c3d d63b ccbd 5369 f1bd 6315 0f3d
00000110: ab14 543d e1a1 8d3d a9cf ab3d e1e2 3c3c
00000120: 3cd1 8cbd 8526 2e3b 3589 a6bc 877b a63d
00000130: 54af 02bc d3b4 d13c a9f3 903d da66 103e
00000140: 8cee 04be 2d0b 543d 1734 0e3e 720f b8bd
00000150: 2286 87bd d0b3 2bbe 6604 29be b43d 0dbe
00000160: c933 1ebe 5bfe c73d 927f 303e e363 c4bd
00000170: 2418 7d3d 5a25 81bd 177e 143e 864a 48be
00000180: b5d7 0abe 9a67 dfbd c228 2e3e 4cf2 d83c
00000190: d2e7 2c3d 49b8 b7bd 0b7c 193e 8d4c fcbc
000001a0: e7cf b0bd 929f 08bd 1bd1 19be 2b58 16be
000001b0: 89eb b8bd 9b4b 05be d950 953b c808 e63d
000001c0: 594e 82bd bedc c43d 7b93 c63c 18db 88ba
000001d0: 3279 093e 92be 943d 3aad 283e 4063 00bd
000001e0: 4b44 a2bd 9425 ca3d 5539 1b3d a830 313e
000001f0: 79a7 f0bd 03b3 55bd 20ec 123e a3de 0cbe

linear_layer.bias f4 [2]
-0.022135358 0.09143534
00000000: 3655 b5bc 7442 bb3d

onnx::LSTM_542 f4 [2, 256]
0.18192206 0.13009326 0.033429906 -0.053448364 -0.13566108 -0.058414556 -0.17292851 -0.1398232
-0.108923964 -0.08787342 -0.15418303 -0.12431904 -0.022074722 -0.07560272 -0.08903032 -0.11419046
0.09219111 -0.014287169 0.073218025 -0.10735773 -0.11068078 0.04899753 -0.011264738 0.040177345
0.09798329 -0.00026916078 0.2010329 0.19595876 -0.05060035 -0.06561653 -0.07064811 -0.038011592
0.06840512 0.100970455 -0.029272087 -0.09328357 0.1293255 0.061688654 -0.03989853 -0.1121075
0.16064432 0.20720164 0.12667902 -0.123062216 -0.109032 0.014173157 0.10679782 -0.15655155
-0.15858582 -0.014143035 0.22114144 -0.065147184 -0.06763996 0.08278407 -0.13278122 -0.060921278
0.13416253 0.045192692 0.115328364 0.16065152 0.13092363 0.13459659 -0.11429544 0.062164113
0.075670585 0.015068222 0.055477865 -0.13012806 0.076857455 -4.507673e-06 -0.10328601 0.037916787
-0.12607644 0.055717926 -0.16678208 0.03920329 0.06269877 -0.12141029 0.054467134 0.18705887
-0.04510494 -0.015146196 0.058966044 -0.0581092 0.04417779 0.12621884 0.1552026 -0.085848324
0.123193316 0.039157286 -0.069013156 0.12990758 -0.151152 0.22179787 0.045745548 0.08046899
0.05366899 -0.04371166 -0.005063452 0.010415562 0.15838607 -0.024984125 0.08108469 0.021692544
0.12623528 0.0066284174 -0.16028342 -0.06857348 -0.07879534 -0.0674987 -0.1672204 -0.13644329
0.034848023 0.1705668 -0.10108212 0.019780733 -0.012227275 -0.121934175 -0.09336827 0.06345957
-0.08830008 -0.053840995 -0.06702491 0.07058977 -0.09461016 0.04680003 -0.023647586 0.04271407
-0.03472243 -0.16273257 -0.042070705 0.0013580659 0.082071446 0.090014294 -0.101824984 0.06926386
0.087341 0.04815035 0.111908205 0.09476386 0.024617244 0.13556536 0.18285774 -0.038434032
0.088388704 -0.107777335 0.09056422 -0.05496114 -0.10647219 0.14602429 0.018775372 0.10990237
0.15034324 0.11272794 0.11748321 -0.11680156 0.0869925 -0.04852351 -0.11804286 0.16000502
-0.050020583 0.08379032 -0.02273691 -0.10506345 0.08684674 0.07778125 -0.038014114 -0.11780038
-0.1235698 0.13648519 0.16429466 -0.08829769 -0.11450887 0.14262053 -0.0028633678 0.058816694
-0.00044320704 -0.053649947 0.07570625 -0.039555367 -0.12621722 -0.04671417 -0.17048508 -0.019911014
0.08834989 -0.11099243 0.15242508 0.1819833 -0.03615891 0.10889182 0.11769782 -0.03831446
-0.0033953907 -0.14768334 -0.09348108 -0.052701212 0.17235787 -0.104127005 0.010758651 -0.024960293
-0.12711969 -0.07620058 0.046088893 0.1811772 -0.046989452 0.21531442 9.8226565e-06 0.19020224
-0.17098655 0.050458416 0.09838696 -0.07010486 -0.13375722 0.086801514 -0.06524929 -0.035717126
-0.12942816 0.015461202 0.075243674 0.12949488 -0.14828901 -0.026506614 -0.0632408 0.10282373
-0.005007642 0.18572953 0.14632542 -0.118945815 0.16333213 -0.013790004 0.020634392 -0.0112073645
0.113596454 -0.024444712 0.17500007 0.07291011 0.14117718 0.13030146 0.05115483 0.04143467
-0.07629967 0.058119036 0.03701454 -0.16829672 -0.078235164 -0.15006989 -0.07987638 -0.12553965
0.07691577 -0.013133339 0.11510021 0.020162545 0.12531614 -0.0971826 -0.00443394 -0.101602286
00000000: c749 3a3e 2b37 053e cced 083d acec 5abd
00000010: bdea 0abe 1a44 6fbd 2c14 31be d02d 0fbe
00000020: 8713 dfbd fbf6 b3bd 28e2 1dbe fb9a febd
00000030: 0cd6 b4bc 99d5 9abd 8755 b6bd b0dc e9bd
00000040: b1ce bc3d bb14 6abc 55f3 953d 5fde dbbd
00000050: 9bac e2bd a2b1 483d bc8f 38bc 0091 243d
00000060: 77ab c83d 261e 8db9 92db 4d3e 6aa9 483e
00000070: 5042 4fbd f661 86bd f5af 90bd 0bb2 1bbd
00000080: fc17 8c3d 99c9 ce3d 04cc efbc 750b bfbd
00000090: e76d 043e 3ead 7c3d a46c 23bd 9e98 e5bd
000000a0: f27f 243e ab2c 543e 25b8 013e 0b08 fcbd
000000b0: 2b4c dfbd 8736 683c d1b8 da3d 0d4f 20be
000000c0: 5264 22be 30b8 67bc e772 623e e36b 85bd
000000d0: d286 8abd b28a a93d cdf7 07be 9788 79bd
000000e0: e761 093e f91b 393d 4731 ec3d d581 243e
000000f0: d810 063e b0d3 093e ba13 eabd cc9f 7e3d
00000100: 2ef9 9a3d b4e0 763c c23c 633d 4a40 05be
00000110: 7167 9d3d 9e40 97b6 9e87 d3bd a24e 1b3d
00000120: 2f1a 01be 7b38 643d ecc8 2abe a193 203d
00000130: 3668 803d f5a5 f8bd ee18 5f3d 5c8c 3f3e
00000140: f5bf 38bd c027 78bc 6186 713d ea03 6ebd
00000150: c5f3 343d 833f 013e 6eed 1e3e 3fd1 afbd
00000160: c74c fc3d 6463 203d c556 8dbd 7e06 053e
00000170: 97c7 1abe fb1e 633e af5f 3b3d edcc a43d
00000180: 04d4 5b3d ff0a 33bd 50eb a5bb 09a6 2a3c
00000190: f52f 223e 82ab ccbc bb0f a63d 90b4 b13c
000001a0: d243 013e 3233 d93b 5621 24be 4170 8cbd
000001b0: 745f a1bd c23c 8abd d33b 2bbe cab7 0bbe
000001c0: cdbc 0e3d 10a9 2e3e 2404 cfbd 340b a23c
000001d0: e954 48bc a0b8 f9bd dd37 bfbd 17f7 813d
000001e0: acd6 b4bd 6088 5cbd 5b44 89bd 5f91 903d
000001f0: f9c2 c1bd 63b1 3f3d 95b8 c1bc f3f4 2e3d
00000200: 1b39 0ebd 5ea3 26be 5552 2cbd 2101 b23a
00000210: 1315 a83d 6a59 b83d 9e89 d0bd 36da 8d3d
00000220: d7df b23d 4d39 453d 2130 e53d 8e13 c23d
00000230: 1aaa c93c a5d1 0a3e 0f3f 3b3e 016d 1dbd
00000240: 2305 b53d 5dba dcbd bc79 b93d ef1e 61bd
00000250: 170e dabd 6487 153e cfce 993c 7e14 e13d
00000260: 94f3 193e e8dd e63d 0a9b f03d a835 efbd
00000270: 2029 b23d 97c0 46bd 74c0 f1bd 5bd8 233e
00000280: 62e2 4cbd 429a ab3d c242 babc 822b d7bd
00000290: b4dc b13d c74b 9f3d b0b4 1bbd 5341 f1bd
000002a0: 2a12 fdbd c6c2 0b3e dc3c 283e 6bd5 b4bd
000002b0: a083 eabd 1e0b 123e 57a7 3bbb c6e9 703d
000002c0: 3e5e e8b9 0cc0 5bbd e10b 9b3d cf04 22bd
000002d0: 163f 01be 5c57 3fbd a493 2ebe 6c1c a3bc
000002e0: caf0 b43d 0050 e3bd 5215 1c3e d559 3a3e
000002f0: 5d1b 14bd ad02 df3d 8e0b f13d a0ef 1cbd
00000300: 3485 5ebb 4d3a 17be 0273 bfbd 3add 57bd
00000310: 957e 303e 8a40 d5bd 0e45 303c 8779 ccbc
00000320: aa2b 02be 0d0f 9cbd b5c7 3c3d 8486 393e
00000330: 0378 40bd 627b 5c3e fdcb 2437 60c4 423e
00000340: 1917 2fbe 7cad 4e3d 1a7f c93d 2393 8fbd
00000350: a7f7 08be fec4 b13d 6ba1 85bd 1f4c 12bd
00000360: d188 04be fb50 7d3c 5b19 9a3d 4e9a 043e
00000370: 13d9 17be 6624 d9bc 6484 81bd 3f95 d23d
00000380: 2517 a4bb e22f 3e3e 55d6 153e dd99 f3bd
00000390: 8a40 273e 78ef 61bc 7509 a93c 189f 37bc
000003a0: 42a5 e83d 4740 c8bc 3833 333e e551 953d
000003b0: c090 103e bf6d 053e ba87 513d 67b7 293d
000003c0: 0043 9cbd 3a0e 6e3d 8f9c 173d fa55 2cbe
000003d0: c239 a0bd ecab 19be 3a96 a3bd 778d 00be
000003e0: 0486 9d3d 372d 57bc a9b9 eb3d ec2b a53c
000003f0: e052 003e ac07 c7bd 964a 91bb dc14 d0bd

onnx::LSTM_543 f4 [2, 128, 12]
0.0922429 0.0666277 0.09570259 -0.024363244 0.111943 -0.057830337 -0.1043833 -0.10219263
0.12961076 0.01784697 -0.15547906 -0.006823102 -0.20391726 -0.12733106 -0.10235082 0.12374296
0.004086177 0.01549395 0.085741565 0.18177669 0.051827796 0.13972874 -0.018750181 -0.2072822
-0.017482352 0.07851709 -0.082446635 -0.057572678 0.096243285 0.06826132 -0.08545194 0.031434868
0.10971196 -0.027575761 0.12951536 0.005289138 0.06882868 0.07449071 0.02675983 -0.087975286
0.08267992 -0.042795517 0.22684549 0.011547661 -0.0015959333 0.09701805 -0.013724868 -0.043770533
-0.036439165 -0.17276676 0.08329267 -0.10476536 0.11321916 0.0028722922 0.078127556 -0.13300142
0.004838486 -0.19356273 0.15012194 -0.101904295 0.13802174 -0.18075657 -0.07633144 -0.03176863
0.06589999 -0.21012741 6.86181e-05 0.033978216 0.07187767 0.31056282 -0.07418782 -0.22753236
0.08442273 0.020058127 0.051583193 -0.000926217 -0.039589092 0.1600251 0.16963843 -0.0036177393
-0.14336164 -0.07418488 -0.019505637 0.054283816 -0.055951677 -0.15741725 0.07490175 0.18556973
-0.19997115 0.05996293 -0.058754146 0.0056436835 -0.02885828 -0.1808382 0.041925028 0.1427302
-0.037356865 0.15119094 -0.21232218 -0.035075247 -0.037092805 -0.0650893 0.068002544 0.0867372
-0.16705704 0.02290219 0.12145638 -0.06701957 -0.060080767 -0.060399856 -0.095104896 0.05889859
0.04875082 -0.06779328 -0.14299531 0.14887732 -0.037617657 -0.26991102 0.16360566 0.08568693
-0.03384978 0.078349024 -0.055098426 -0.19840433 0.037179127 0.15634008 0.009784593 0.12334118
-0.084529124 0.050115164 0.20880513 0.01730135 0.059456706 -0.09563863 0.10810218 -0.080918804
0.10052356 0.14911437 0.14565863 0.12475594 0.02228755 -0.040974777 0.007516077 -0.12097999
-0.048845347 0.05714829 -0.054573957 -0.024924854 0.059499823 -0.079627 0.13496234 0.15716197
-0.1658118 0.28383404 0.23473023 -0.059456818 -0.0051469128 -0.14090262 -0.0015148511 -0.112061486
-0.10149196 -0.0062860055 0.17782402 0.022952193 -0.01381271 0.1258584 0.053170808 -0.06433572
-0.09176728 -0.16916488 -0.13109067 0.055072397 0.18729179 -0.10609512 0.17308019 0.069907986
0.04469678 -0.1412828 -0.13223524 -0.074288 -0.044711955 -0.08185227 -0.12162458 -0.12114304
0.0065058484 0.14233331 0.14851625 0.15099783 -0.00826613 0.021223478 0.15206791 -0.11119255
-0.0074121817 -0.18427163 -0.07269184 0.14534757 -0.06292011 0.080020785 0.18216982 0.046020273
0.12317038 -0.090240955 -0.21731041 0.027221885 -0.13984078 0.0018472166 0.13551572 -0.12477895
-0.0035371352 0.20298322 -0.07435858 0.12421922 0.10730295 0.10423563 -0.12974676 -0.09430439
0.03839374 -0.016516574 -0.25736368 0.14633183 -0.0873008 0.079172626 -0.1701562 -0.04258439
-0.10770136 0.09903702 -0.17963192 0.11393232 -0.028341051 -0.0862337 0.11750544 0.050506618
-0.1619367 0.14667216 -0.03908023 -0.011135155 0.0023362343 0.034993276 0.09481517 0.16656707
0.065564364 0.12760088 -0.20936215 -0.16365811 -0.029465897 0.1726845 0.087888844 0.20946616
0.032834556 -0.09808247 0.1806903 0.0076687937 -0.20332761 0.056483835 -0.16400415 -0.1655493
00000000: d8e9 bc3d 1b74 883d b8ff c33d 6d95 c7bc
00000010: 5f42 e53d 81df 6cbd e9c6 d5bd 5f4a d1bd
00000020: afb8 043e cf33 923c e735 1fbe 5494 dfbb
00000030: b0cf 50be 1363 02be 4f9d d1bd f36c fd3d
00000040: 56e5 853b 56da 7d3c 4699 af3d ab23 3a3e
00000050: 6249 543d 0d15 0f3e fb99 99bc c941 54be
00000060: 2637 8fbc 91cd a03d c8d9 a8bd 54d1 6bbd
00000070: 331b c53d 97cc 8b3d 6d01 afbd d9c1 003d
00000080: aab0 e03d 90e6 e1bc ad9f 043e 8150 ad3b
00000090: 0df6 8c3d 968e 983d 6e37 db3c 632c b4bd
000000a0: 1754 a93d 5a4a 2fbd 2f4a 683e 6732 3d3c
000000b0: a32e d1ba 66b1 c63d 45de 60bc bb48 33bd
000000c0: 3c41 15bd c5e9 30be 5995 aa3d 398f d6bd
000000d0: 72df e73d 113d 3c3b 5701 a03d 8631 08be
000000e0: 2a8c 9e3b 4f35 46be 91b9 193e 33b3 d0bd
000000f0: 9255 0d3e 4018 39be a853 9cbd d31f 02bd
00000100: 93f6 863d a42b 57be 10e7 8f38 be2c 0b3d
00000110: 9a34 933d 1702 9f3e c9ef 97bd 3efe 68be
00000120: d3e5 ac3d f150 a43c e648 533d 5fcd 72ba
00000130: 2c28 22bd 9fdd 233e b2b5 2d3e 9817 6dbb
00000140: 65cd 12be 3eee 97bd 49ca 9fbc b558 5e3d
00000150: 962d 65bd fd31 21be 1766 993d fe05 3e3e
00000160: 3dc5 4cbe b09b 753d 30a8 70bd a6ee b83b
00000170: 3368 ecbc a62d 39be 94b9 2b3d de27 123e
00000180: 8303 19bd ccd1 1a3e fc6a 59be 10ab 0fbd
00000190: a0ee 17bd 8a4d 85bd eb44 8b3d 46a3 b13d
000001a0: 0011 2bbe 609d bb3c 1fbe f83d 8e41 89bd
000001b0: 4017 76bd d765 77bd 5bc6 c2bd a63f 713d
000001c0: f1ae 473d 34d7 8abd 5d6d 12be 4c73 183e
000001d0: f914 1abd c731 8abe 3e88 273e a17c af3d
000001e0: 11a6 0abd 7475 a03d e3ae 61bd 812a 4bbe
000001f0: 2449 183d 9d17 203e 8f4f 203c 4d9a fc3d
00000200: 9b1d adbd 8f45 4d3d 03d1 553e 90bb 8d3c
00000210: e088 733d 30de c3bd ad64 dd3d c2b8 a5bd
00000220: 4cdf cd3d 70b1 183e 8927 153e 0b80 ff3d
00000230: 6194 b63c 2bd5 27bd 6c49 f63b 5bc4 f7bd
00000240: 0f12 48bd 5314 6a3d f188 5fbd 352f ccbc
00000250: 16b6 733d 7b13 a3bd 9133 0a3e 11ef 203e
00000260: 92ca 29be b252 913e 1f5d 703e fe88 73bd
00000270: 6fa7 a8bb c748 10be f88d c6ba 7e80 e5bd
00000280: 04db cfbd d6fa cdbb 8017 363e 3d06 bc3c
00000290: b44e 62bc 06e1 003e a2c9 593d 72c2 83bd
000002a0: 7cf0 bbbd 8f39 2dbe a23c 06be 9893 613d
000002b0: 6bc9 3f3e 6648 d9bd ef3b 313e eb2b 8f3d
000002c0: f913 373d 70ac 10be ad68 07be 4f24 98bd
000002d0: e223 37bd 2aa2 a7bd 4f16 f9bd d819 f8bd
000002e0: 032f d53b d3bf 113e a514 183e 2d9f 1a3e
000002f0: aa6e 07bc dcdc ad3c b1b7 1b3e ebb8 e3bd
00000300: e3e1 f2bb b4b1 3cbe 76df 94bd fed5 143e
00000310: 42dc 80bd f0e1 a33d ba8a 3a3e c17f 3c3d
00000320: c140 fc3d 40d0 b8bd 9f86 5ebe 6e00 df3c
00000330: 6c32 0fbe 4e1e f23a a2c4 0a3e 1b8c ffbd
00000340: 48cf 67bb d5da 4f3e 5049 98bd a566 fe3d
00000350: a6c1 db3d 7d79 d53d 56dc 04be a922 c1bd
00000360: c142 1d3d c44d 87bc 2cc5 83be 03d8 153e
00000370: c3ca b2bd 4225 a23d 6d3d 2ebe f86c 2ebd
00000380: 8892 dcbd ecd3 ca3d 6ef1 37be 5955 e93d
00000390: 7e2b e8bc 4b9b b0bd b1a6 f03d 07e0 4e3d
000003a0: bcd2 25be 3a31 163e 9712 20bd 3a70 36bc
000003b0: 821b 193b 1c55 0f3d 752e c23d 8f90 2a3e
000003c0: 9c46 863d cea9 023e 0863 56be fe95 27be
000003d0: 7762 f1bc 35d4 303e 11ff b33d 4c7e 563e
000003e0: 877d 063d 76df c8bd e106 393e 814a fb3b
000003f0: 1d35 50be 985b 673d b4f0 27be c185 29be

onnx::LSTM_544 f4 [2, 128, 32]
0.15257637 -0.22305596 -0.108203344 0.0055833147 -0.05415314 0.17146501 -0.25086406 -0.08877791
-0.10243594 0.009809198 -0.09600956 0.048855755 -0.16750099 -0.009361659 0.08582476 0.10254018
0.12156666 -0.038643774 0.062562026 0.062057525 -0.22484797 -0.06090684 -0.0007191428 -0.13446353
-0.11805585 0.1022453 0.019365422 -0.05082951 -0.07763842 0.0029854812 -0.006359264 0.2130835
-0.0342874 0.07009636 0.06233203 0.044822745 -0.13808651 -0.10214703 0.15566722 0.04219016
-0.122242324 0.040867615 0.03169321 0.16265586 -0.10360326 -0.07653062 -0.23674223 0.13667466
-0.14784758 -0.15111162 0.041743264 -0.0063987635 0.17276317 -0.12803973 0.19578487 -0.17541005
-0.12267485 0.100288115 -0.124079034 -0.11833064 0.07436676 0.04513754 -0.08842628 -0.2374704
-0.21617863 -0.0515938 0.09401603 0.13634567 0.09951033 0.066947706 -0.1434996 0.052648503
0.111819275 0.119573124 -0.15122153 0.10275157 0.03497352 -0.15000787 0.07300247 -0.193431
0.14680065 -0.13995185 -0.16153032 -0.094793 0.06418914 -0.064515546 0.118740186 0.07526011
-0.09261334 -0.0041945335 0.01653386 -0.036847904 0.010954758 -0.058384385 -0.01769346 0.0020187777
-0.1483092 -0.16850108 0.06436752 0.10016745 0.008636628 -0.02813698 -0.004803796 -0.132711
0.02628218 0.04480259 0.07820619 -0.014733413 -0.15620258 -0.19387282 -0.032424737 0.016409123
-0.11802657 -0.03578587 0.107949205 0.0066177454 -0.017955208 -0.15900527 0.047506712 -0.012421068
-0.04390228 -0.06331985 -0.16937894 0.16504623 0.15761049 -0.03625294 -0.08167824 -0.03397901
0.08191033 -0.006036813 -0.07767826 -0.07494275 0.06521115 -0.12580764 0.09319639 -0.056748413
0.17390372 0.14571062 0.075429924 0.14623103 0.048368633 -0.13253233 -0.15367553 0.026302975
0.12077296 -0.15460101 0.0070952955 0.16044798 -0.034162723 0.04521199 0.08798783 0.023070341
0.12633654 0.07251829 0.0088012675 -0.08979935 -0.11862673 -0.0024964577 0.08513851 -0.0034645218
0.2139621 -0.13013886 -0.14648315 -0.13997144 0.134885 -0.14166392 0.06465401 -0.12629734
0.014787358 -0.05737576 0.006849386 0.096211664 0.04788227 0.06918494 -0.057311293 -0.15372008
0.14639875 -0.15559229 -0.049781438 -0.16579735 0.08819413 -0.047966924 -0.15576054 0.122194
0.060286544 0.025189774 -0.035637666 -0.07047629 0.11368416 0.032800015 0.1343166 0.16923153
0.14046519 -0.09670037 0.09184195 0.17627661 0.064276986 -0.1297533 0.13834672 0.16579121
-0.015677104 -0.005750349 0.11941061 -0.12170736 -0.005598265 0.06239505 -0.14267921 0.04485067
-0.04593639 -0.095604025 0.14741087 0.16532513 0.13744329 0.061913125 -0.00066828897 0.048490718
0.19317658 0.05436244 0.07181391 0.01044048 0.09902649 -0.14357539 -0.14151518 -0.22399051
0.091416515 0.059587914 0.026435317 -0.17823318 0.09354898 0.0010455254 -0.017628793 -0.009027718
-0.01556134 -0.117580086 0.13429092 -0.096733615 0.047170572 0.024072107 0.026334213 -0.21181531
0.06373942 0.0094244955 -0.033021722 -0.16250026 -0.11262888 -0.07347002 0.103672594 -0.009989095
0.14066638 0.09739482 0.101323485 0.13540244 0.10841438 0.16282557 0.033755597 0.13430104
00000000: fb3c 1c3e c868 64be b799 ddbd 3df4 b63b
00000010: afcf 5dbd 8694 2f3e 4171 80be 31d1 b5bd
00000020: efc9 d1bd c2b6 203c a9a0 c4bd f91c 483d
00000030: 6185 2bbe a561 19bc e4c4 af3d 9600 d23d
00000040: f1f7 f83d ef48 1ebd 8520 803d 0830 7e3d
00000050: 8c3e 66be 7379 79bd db84 3cba cfb0 09be
00000060: 44c7 f1bd fc65 d13d 3ca4 9e3c 9b32 50bd
00000070: e400 9fbd 10a8 433b 5f61 d0bb 9032 5a3e
00000080: f270 0cbd ae8e 8f3d df4f 7f3d 0e98 373d
00000090: 8d66 0dbe 7632 d1bd 3a67 1f3e 97cf 2c3d
000000a0: 2f5a fabd cd64 273d bdd0 013d 428f 263e
000000b0: f22d d4bd 16bc 9cbd 8e6c 72be 71f4 0b3e
000000c0: 5b65 17be 01bd 1abe fcfa 2a3d b8ac d1bb
000000d0: d4e8 303e d91c 03be d47b 483e b19e 33be
000000e0: f43c fbbd db63 cd3d 261d febd 5657 f2bd
000000f0: 9a4d 983d 24e2 383d d618 b5bd 712b 73be
00000100: ee5d 5dbe 0554 53bd 7a8b c03d 339e 0b3e
00000110: 12cc cb3d e11b 893d 8ff1 12be f5a5 573d
00000120: 8101 e53d c1e2 f43d d1d9 1abe 6a6f d23d
00000130: 6540 0f3d aa9b 19be 5282 953d c712 46be
00000140: e952 163e 8a4f 0fbe 3468 25be d522 c2bd
00000150: 9975 833d ba20 84bd 0e2e f33d f921 9a3d
00000160: 10ac bdbd 4c72 89bb 0472 873c d4ed 16bd
00000170: 967b 333c 7724 6fbd e0f1 90bc 784d 043b
00000180: 5ede 17be 8c8b 2cbe 1ed3 833d 9824 cd3d
00000190: a580 0d3c 867f e6bc 2969 9dbb 64e5 07be
000001a0: ba4d d73c ec82 373d 912a a03d 6a64 71bc
000001b0: 92f3 1fbe 9986 46be cdcf 04bd 6d6c 863c
000001c0: eab7 f1bd 3494 12bd 7914 dd3d acd9 d83b
000001d0: cd16 93bc 47d2 22be 6696 423d bc81 4bbc
000001e0: e1d2 33bd d6ad 81bd ac71 2dbe e101 293e
000001f0: a564 213e f67d 14bd ec46 a7bd 932d 0bbd
00000200: 9ac0 a73d 75d0 c5bb c815 9fbd 967b 99bd
00000210: 6c8d 853d b8d3 00be c0dd be3d 0671 68bd
00000220: d113 323e 2a35 153e 017b 9a3d 96bd 153e
00000230: 301e 463d 8eb6 07be 1e5d 1dbe 5679 d73c
00000240: d057 f73d ba4f 1ebe a77f e83b 7a4c 243e
00000250: 36ee 0bbd 3530 393d f732 b43d 03fe bc3c
00000260: 5e5e 013e 7884 943d 3133 103c b9e8 b7bd
00000270: 92f2 f2bd 9c9b 23bb 195d ae3d 080d 63bb
00000280: e118 5b3e 1f43 05be aeff 15be ac54 0fbe
00000290: 4b1f 0a3e 5910 11be 5269 843d 1754 01be
000002a0: ad46 723c d802 6bbd d070 e03b 9f0a c53d
000002b0: 3320 443d d5b0 8d3d 3fbf 6abd cc68 1dbe
000002c0: 8ee9 153e 9653 1fbe 9fe7 4bbd c8c6 29be
000002d0: 209f b43d f778 44bd b17f 1fbe d940 fa3d
000002e0: 06ef 763d c95a ce3c cdf8 11bd e055 90bd
000002f0: 3ed3 e83d 4f59 063d 4a8a 093e 084b 2d3e
00000300: 1bd6 0f3e d80a c6bd a217 bc3d db81 343e
00000310: a7a3 833d 0dde 04be c3aa 0d3e 2cc5 293e
00000320: 456d 80bc 6c6d bcbb 8d8d f43d b541 f9bd
00000330: a771 b7bb f491 7f3d 801a 12be 56b5 373d
00000340: cc27 3cbd 0bcc c3bd e0f2 163e fe4a 293e
00000350: efbd 0c3e 9e98 7d3d 1d30 2fba 349e 463d
00000360: 15d0 453e 26ab 5e3d 2c13 933d 8c0e 2b3c
00000370: 66ce ca3d 6d05 13be 5be9 10be c55d 65be
00000380: 9538 bb3d 7512 743d e18e d83c c282 36be
00000390: 9c96 bf3d 030a 893a 426a 90bc fee8 13bc
000003a0: fef4 7ebc d4cd f0bd 8f83 093e 461c c6bd
000003b0: ee35 413d de32 c53c d9ba d73c 1de6 58be
000003c0: d089 823d 3369 1a3c c941 07bd 7866 26be
000003d0: f8a9 e6bd 7377 96bd 4c52 d43d 4da9 23bc
000003e0: d90a 103e ef76 c73d b082 cf3d f0a6 0a3e
000003f0: 5c08 de3d bfbb 263e 4f43 0a3d 3686 093e

onnx::LSTM_589 f4 [2, 256]
-0.08937822 0.00012901549 0.026083402 0.18667999 -0.041855417 -0.13249552 -0.05309409 0.13658437
-0.1083797 -0.0028200883 0.0050339974 0.16646662 0.092770785 -0.06494819 -0.06629769 -0.017981183
0.13775773 0.11934024 -0.072481826 -0.041553803 -0.07340535 -0.120305166 0.06832648 -0.14551961
-0.15522368 0.12291443 -0.06790892 -0.11064636 0.078712955 0.16894315 0.10281821 0.1632774
0.01764908 -0.09227146 -0.09436272 0.1586989 -0.14437026 -0.11985156 0.0014784478 0.09608605
-0.07813498 0.1514527 -0.13077967 0.03276207 -0.061840653 0.12090688 -0.022981424 0.21046104
0.17121686 0.037599538 -0.012354751 0.18218982 0.14786379 0.011560769 0.09710015 -0.06046063
0.13308026 -0.059567038 -0.04634512 0.01800062 0.07192259 0.04848525 0.10663286 0.14492989
-0.029624712 -0.0074020536 -0.02551797 -0.062776744 -0.13979706 -0.059307285 0.025745835 -0.041951176
-0.16790172 0.06260359 -0.11713074 -0.1089634 0.12711701 -0.018927878 -0.15459004 0.2023579
-0.16611202 0.11423057 -0.036339235 0.0511284 -0.04342397 0.105018765 -0.11844948 0.037744492
0.028470619 0.10400425 0.12405699 -0.1579251 0.06797966 0.069086686 0.066632375 -0.06696987
-0.1552644 0.0459074 0.089008115 -0.0015381961 0.13981661 0.1558807 -0.036706127 -0.12420102
-0.010992584 0.079605326 0.13047467 -0.09744963 -0.052731283 -0.022744156 -0.0010876886 0.034091584
-0.024693253 -0.17270952 -0.01576359 -0.14714025 0.034581132 -0.046068322 -0.11507793 0.018832948
-0.13748743 -0.14575146 0.11854215 0.12503986 0.11777767 -0.14130066 0.15727168 -0.17175359
-0.1660428 -0.05464542 0.07115906 0.06426732 0.008185082 0.10994187 -0.03221272 0.0767841
-0.016251719 -0.028688915 -0.078467034 0.17114249 0.19004813 0.06384091 0.08704231 0.17564139
-0.10159234 0.025037285 -0.14624083 0.10563306 -0.03680685 0.016144613 -0.04820217 0.16134018
0.13768324 0.18749511 -0.019997152 0.06869196 0.18631609 0.056192085 0.14325853 -0.09925717
-0.07140346 -0.13738073 0.18521245 -0.031757362 -0.05911298 -0.086991586 0.11068499 -0.12628818
-0.14899363 0.055722903 -0.10417023 0.1023334 -0.12799655 -0.085988246 -0.12974997 -0.06813894
-0.03312609 0.14383975 -0.12257006 0.051089667 -0.09479956 0.090945564 0.1969605 -0.08187068
-0.031760383 -0.056073505 0.20041297 0.11960355 0.2047088 0.13446352 0.08255967 0.0058786767
0.17630364 -0.096097454 -0.07396671 -0.049685948 0.12844844 0.00427317 0.04170728 -0.03294335
0.15042663 0.21569566 -0.14933608 0.041102808 0.06701685 0.061676104 0.0077816704 0.07571237
-0.091444336 0.09793505 0.0743049 0.02160745 -0.12720636 -0.040275283 0.15649846 -0.026144147
0.05893477 0.042951144 0.03976556 0.06918619 0.05857437 -0.114973076 0.11587412 0.21024244
-0.0833455 0.073398836 0.15424384 -0.098711856 -0.04508974 0.02233718 0.015531893 -0.1277859
-0.15120223 -0.14855824 -0.17089649 0.06303986 0.15510714 -0.10045105 0.06734701 0.079086
-0.12220848 -0.16827625 0.06793504 -0.11014984 -0.10776939 0.16151218 0.039463278 0.08919562
0.11292596 0.034576524 -0.021882322 0.02448301 -0.050047312 0.13460763 -0.071076155 0.11831105
00000000: ee0b b7bd 5548 0739 dcac d53c 0a29 3f3e
00000010: 9670 2bbd e8ac 07be 3079 59bd c6dc 0b3e
00000020: 2df6 ddbd 3bd1 38bb 3bf4 a43b 3a76 2a3e
00000030: 9cfe bd3d 8e03 85bd 15c7 87bd 464d 93bc
00000040: 5d10 0d3e a868 f43d 5a71 94bd 5234 2abd
00000050: 8b55 96bd 8e62 f6bd c1ee 8b3d 1803 15be
00000060: f5f2 1ebe 90ba fb3d d513 8bbd 8f9a e2bd
00000070: 4234 a13d 6fff 2c3e 5b92 d23d 3132 273e
00000080: ce94 903c d2f8 bcbd 3e41 c1bd f781 223e
00000090: ccd5 13be bc74 f5bd 7ac8 c13a c3c8 c43d
000000a0: 3b05 a0bd 6b16 1b3e 1beb 05be 8531 063d
000000b0: a04c 7dbd 079e f73d 8a43 bcbc 1983 573e
000000c0: 7953 2f3e f901 1a3d 956b 4abc f88f 3a3e
000000d0: 9b69 173e 6169 3d3c 72dc c63d 91a5 77bd
000000e0: 3146 083e 91fc 73bd 61d4 3dbd 0976 933c
000000f0: 274c 933d 7898 463d 5462 da3d 8068 143e
00000100: 86af f2bc ed8c f2bb 100b d1bc 1891 80bd
00000110: f626 0fbe 32ec 72bd eee8 d23c ffd4 2bbd
00000120: 6eee 2bbe 5036 803d 3ee2 efbd 3428 dfbd
00000130: f62a 023e a30e 9bbc da4c 1ebe e936 4f3e
00000140: 4519 2abe b8f1 e93d 73d8 14bd 036c 513d
00000150: 55dd 31bd 1414 d73d a495 f2bd f899 1a3d
00000160: 373b e93c 2e00 d53d 9711 fe3d 1eb7 21be
00000170: ec38 8b3d 527d 8d3d 8e76 883d 8027 89bd
00000180: a2fd 1ebe 6609 3c3d e349 b63d 4c9d c9ba
00000190: 162c 0f3e 319f 1f3e 2a59 16bd 1b5d febd
000001a0: 3d1a 34bc 1e08 a33d 279b 053e ac93 c7bd
000001b0: c2fc 57bd f451 babc c690 8eba 9ea3 0b3d
000001c0: 8149 cabc c4da 30be a522 81bc efab 16be
000001d0: f2a4 0d3d 23b2 3cbd faad ebbd 8e47 9a3c
000001e0: 81c9 0cbe df3f 15be 3ac6 f23d 730a 003e
000001f0: 6b35 f13d 1fb1 10be d40b 213e 2ce0 2fbe
00000200: 2007 2abe e0d3 5fbd d7bb 913d 969e 833d
00000210: b91a 063c 3429 e13d 7cf1 03bd fb40 9d3d
00000220: 5322 85bc 0405 ebbc 53b3 a0bd fa3f 2f3e
00000230: fa9b 423e 06bf 823d 3d43 b23d 56db 333e
00000240: a50f d0bd fe1a cd3c 28c0 15be 2556 d83d
00000250: c8c2 16bd b541 843c a36f 45bd 5c36 253e
00000260: d6fc 0c3e b8fe 3f3e 11d1 a3bc 5fae 8c3d
00000270: a5c9 3e3e ac29 663d 5db2 123e 5847 cbbd
00000280: fa3b 92bd 89ad 0cbe 55a8 3d3e 0214 02bd
00000290: 7420 72bd a528 b2bd d0ae e23d b051 01be
000002a0: c991 18be b33d 643d 3457 d5bd 2c94 d13d
000002b0: 8711 03be 9b1a b0bd 2ddd 04be 6e8c 8bbd
000002c0: 39af 07bd ba4a 133e 0306 fbbd 6643 513d
000002d0: 4626 c2bd ab41 ba3d 03b0 493e d1ab a7bd
000002e0: 2d17 02bd 55ad 65bd 0f39 4d3e b5f2 f43d
000002f0: 2f9f 513e ceb0 093e 0b15 a93d eaa1 c03b
00000300: f188 343e bece c4bd dc7b 97bd 7e83 4bbd
00000310: fd87 033e f305 8c3b 41d5 2a3d 9bef 06bd
00000320: 7009 1a3e 53df 5c3e 8feb 18be 6b5b 283d
00000330: 2140 893d 15a0 7c3d 62fd fe3b 160f 9b3d
00000340: 2b47 bbbd 2c92 c83d 2b2d 983d 1b02 b13c
00000350: 6242 02be b2f7 24bd 2241 203e 402c d6bc
00000360: 9665 713d 8aed 2f3d 36e1 223d 7db1 8d3d
00000370: aeeb 6f3d 0177 ebbd 694f ed3d cb49 573e
00000380: 0cb1 aabd 2152 963d 19f2 1d3e 7129 cabd
00000390: 05b0 38bd 76fc b63c 7b79 7e3c 4fda 02be
000003a0: c2d4 1abe a71f 18be 7dff 2ebe 0b1b 813d
000003b0: 68d4 1e3e 48b9 cdbd 3bed 893d d7f7 a13d
000003c0: 7148 fabd 9c50 2cbe 8721 8b3d 3d96 e1bd
000003d0: 33b6 dcbd 7363 253e 3fa4 213d 31ac b63d
000003e0: ba45 e73d 1da0 0d3d 8e42 b3bc 9890 c83c
000003f0: 69fe 4cbd 95d6 093e 6090 91bd 104d f23d

onnx::LSTM_590 f4 [2, 128, 64]
-0.17872527 0.12303919 0.021443399 -0.063594766 -0.12969753 0.087805904 0.040234968 -0.16867971
-0.11280859 -0.060860105 -0.14475465 -0.05750276 -0.035311237 -0.08186692 -0.06936424 -0.010329809
0.13513933 0.11642299 0.018634023 -0.15237375 0.10102084 -0.15377967 0.11177408 -0.18895225
0.1363705 0.03869129 -0.0617216 0.017303798 0.05140651 0.18572502 -0.03907577 0.013435415
-0.07055116 -0.13353997 0.17832793 0.121841595 -0.15094349 -0.044435337 0.082596876 -0.076965615
0.13818386 0.124745525 -0.10285465 0.049950603 0.113407455 -0.07947349 0.17737278 0.018716931
0.11931613 0.10118577 0.19099526 0.051159047 0.026307927 0.04007917 -0.020094221 0.085423276
0.07521793 -0.19677706 0.15709664 0.16177325 -0.013469564 0.1706596 0.092617564 -0.06095337
0.00026627784 -0.108901806 0.036477998 0.11350296 -0.1317104 -0.18001479 -0.07943537 0.012520734
0.07337086 -0.17677265 -0.032210443 0.20434697 -0.014903282 -0.113778606 -0.12898155 0.034285013
0.01114846 0.16534118 0.15086348 -0.015329263 -0.00094679167 0.10963135 0.09459303 0.17945792
-0.208442 0.103457324 -0.18782352 0.06806384 -0.14209884 -0.093668155 -0.018355787 0.13241053
0.026001247 0.14116521 0.029473675 -0.10795908 0.001787649 0.064349055 0.10539141 -0.10728733
-0.16137163 -0.083054855 -0.11805966 -0.08695746 -0.042725187 -0.07015719 0.14846244 -0.09511446
0.055137604 -0.014348503 0.09912747 -0.11750969 -0.048009142 0.16830356 -0.066872306 -0.08293506
0.0421396 0.09010371 0.05584097 0.0137350885 -0.028962458 0.11729837 0.06302018 -0.13678738
0.062382665 -0.08775191 -0.10104445 -0.09349163 0.033518545 -0.19080189 0.135637 -0.18793377
0.01458999 -0.18178573 -0.13516271 0.019022252 0.018383397 -0.15427874 -0.014711735 0.013577906
0.16222586 0.003103168 0.111711495 -0.19086124 -0.08973826 -0.15026939 -0.023750419 0.017960338
-0.14137666 0.035745986 -0.19594207 -0.13609804 -0.14303152 -0.05572255 0.1378773 -0.1514232
0.069360316 0.0012826467 -0.1105399 0.06458334 0.006449544 0.018179428 -0.083681166 -0.0584764
-0.08801744 0.11438086 0.09358731 -0.14787453 0.12245196 -0.09706377 0.008495983 0.086454995
-0.07035337 0.03728801 0.12937179 0.1456191 -0.006038575 0.16090345 -0.072458394 0.22170351
-0.10044162 -0.06416591 -0.13703212 0.06329786 0.22040474 -0.02596129 0.13851757 0.06522078
0.21210352 -0.21073437 0.07046029 -0.052842934 -0.15136044 0.1395205 -0.21301763 -0.08333553
0.058197375 0.05632736 0.087988704 -0.16208178 0.046149872 0.035869375 0.05738931 0.07850714
-0.01362328 0.041989505 0.16682634 -0.00061504217 0.13171653 0.18520084 0.12808281 -0.0407499
0.12600254 0.060017448 0.098622955 -0.027565861 -0.17221195 -0.06967777 0.20351908 0.1989124
0.20191419 0.15653421 0.13569891 -0.1977835 0.03400469 0.21765137 0.11140436 -0.21201102
0.054842692 0.039637476 -0.110782884 0.23790757 -0.1509188 -0.06384428 -0.0011919001 0.14836377
0.17446122 0.12595865 -0.13041678 -0.11291986 -0.13252091 -0.071672216 -0.022030672 0.19322602
0.063774474 -0.09772616 -0.055761784 0.14121617 0.11815571 -0.10515071 -0.111424685 -0.0050860206
00000000: c203 37be f9fb fb3d 11aa af3c f93d 82bd
00000010: 6ecf 04be 95d3 b33d 6ccd 243d 60ba 2cbe
00000020: 3108 e7bd 7248 79bd 903a 14be 0488 6bbd
00000030: 84a2 10bd d8a9 a7bd d70e 8ebd 5c3e 29bc
00000040: f761 0a3e 2d6f ee3d 61a6 983c dd07 1cbe
00000050: 04e4 ce3d 6b78 1dbe cfe9 e43d b37c 41be
00000060: b5a4 0b3e c27a 1e3d cacf 7cbd b2c0 8d3c
00000070: a28f 523d b32e 3e3e ea0d 20bd 3720 5c3c
00000080: 207d 90bd b4be 08be 999b 363e 1688 f93d
00000090: ee90 1abe d401 36bd 8d28 a93d 26a0 9dbd
000000a0: 1280 0d3e 957a ff3d 75a5 d2bd 0199 4c3d
000000b0: 2b42 e83d ffc2 a2bd 36a1 353e 4054 993c
000000c0: 045c f43d 7c3a cf3d 4394 433e 268c 513d
000000d0: b983 d73c 0e2a 243d a39c a4bc 66f2 ae3d
000000e0: dc0b 9a3d ed7f 49be f1dd 203e e3a7 253e
000000f0: 72af 5cbc 64c1 2e3e 47ae bd3d 3eaa 79bd
00000100: 359b 8b39 e907 dfbd f469 153d 3d74 e83d
00000110: 17df 06be cc55 38be 03af a2bd c423 4d3c
00000120: 7643 963d e403 35be 19ef 03bd 5540 513e
00000130: e52c 74bc c204 e9bd bd13 04be 716e 0c3d
00000140: 08a8 363c 334f 293e f57b 1a3e 9727 7bbc
00000150: 1d32 78ba 6786 e03d feb9 c13d d1c3 373e
00000160: d271 55be 6fe1 d33d cf54 40be 0e65 8b3d
00000170: 5c82 11be 17d5 bfbd e05e 96bc a096 073e
00000180: 9100 d53c 9d8d 103e c772 f13c a619 ddbd
00000190: 8c4f ea3a 70c9 833d 74d7 d73d 76b9 dbbd
000001a0: 9b3e 25be aa18 aabd 43c9 f1bd c116 b2bd
000001b0: 9b00 2fbd 93ae 8fbd 8a06 183e 5fcb c2bd
000001c0: f8d7 613d fc15 6bbc 5803 cb3d eca8 f0bd
000001d0: 3ca5 44bd c557 2c3e 59f4 88bd dbd9 a9bd
000001e0: 939a 2c3d 4b88 b83d 80b9 643d 2309 613c
000001f0: ad42 edbc 213a f03d b910 813d fe11 0cbe
00000200: f784 7f3d 46b7 b3bd 65f0 cebd 8a78 bfbd
00000210: be4a 093d 9261 43be 6de4 0a3e b671 40be
00000220: da0a 6f3c 0a26 3abe 1868 0abe 8ed4 9b3c
00000230: c798 963c 3ffb 1dbe 7d09 71bc de75 5e3c
00000240: 891e 263e 855e 4b3b ffc8 e43d 2171 43be
00000250: b1c8 b7bd 38e0 19be 3d90 c2bc 8f21 933c
00000260: 0bc5 10be 626a 123d 0aa5 48be 495d 0bbe
00000270: db76 12be 543d 64bd b52f 0d3e af0e 1bbe
00000280: c80c 8e3d 7b1e a83a be62 e2bd 4544 843d
00000290: b256 d33b 06ed 943c 0861 abbd f384 6fbd
000002a0: 7d42 b4bd 8340 ea3d b4aa bf3d 6c6c 17be
000002b0: 18c8 fa3d 5fc9 c6bd bc32 0b3c 510f b13d
000002c0: 6d15 90bd 50bb 183d 0a7a 043e 2c1d 153e
000002d0: 3ddf c5bb e0c3 243e 1165 94bd 3f06 633e
000002e0: 56b4 cdbd 6b69 83bd 2652 0cbe 4fa2 813d
000002f0: c8b1 613e c5ac d4bc 8dd7 0d3e 7992 853d
00000300: aa31 593e c0ca 57be 7c4d 903d d571 58bd
00000310: 3bfe 1abe 76de 0e3e 4b21 5abe d1ab aabd
00000320: 5f60 6e3d 85b7 663d 6c33 b43d c4f8 25be
00000330: a607 3d3d c4eb 123d 0e11 6b3d 5ac8 a03d
00000340: 2e34 5fbc 30fd 2b3d 86d4 2a3e c83a 21ba
00000350: b3e0 063e 4aa5 3d3e 2428 033e 5ee9 26bd
00000360: cf06 013e dbd4 753d d5fa c93d cdd1 e1bc
00000370: 5458 30be 38b3 8ebd 4e67 503e b1af 4b3e
00000380: 98c2 4e3e 814a 203e a8f4 0a3e c287 4abe
00000390: 8048 0b3d 00e0 5e3e f827 e43d 6b19 59be
000003a0: bba2 603d e85a 223d 23e2 e2bd 0b9e 733e
000003b0: 758a 1abe cac0 82bd 8839 9cba acec 173e
000003c0: f6a5 323e 4efb 003e fa8b 05be 8742 e7bd
000003d0: 90b3 07be e2c8 92bd ab79 b4bc 0bdd 453e
000003e0: 319c 823d a724 c8bd 7866 64bd f99a 103e
000003f0: 9ffb f13d 4159 d7bd a032 e4bd a2a8 a6bb

onnx::LSTM_591 f4 [2, 128, 32]
-0.13719659 -0.119191036 -0.11738251 -0.13175127 0.12342658 -0.032890875 -0.100029305 0.053409133
-0.020349314 0.043188047 -0.13289884 -0.20019336 0.11343204 0.09545696 -0.0295483 -0.17124212
-0.04260241 0.035768326 -0.11927932 0.009405667 -0.15796383 0.1409296 -0.012229054 0.18475924
0.014791133 -0.17174976 0.030514747 0.051312443 0.024404354 -0.03542308 -0.11057087 -0.1423724
-0.10489557 0.20549478 -0.01544765 -0.20361786 -0.13616873 0.18297149 -0.0021887552 0.10805374
-0.18374188 -0.05643139 -0.08736664 0.11686844 0.12831977 0.13715944 -0.0040273606 0.12952313
-0.20223498 -0.042571217 0.126773 -0.07535096 -0.08209245 0.0504485 0.21755232 0.06947066
0.054247927 0.12428321 0.026652226 0.058039073 0.129022 0.108942375 -0.17125589 -0.15089524
-0.13997382 0.093163885 0.07489642 -0.17255974 -0.013707794 -0.13357262 -0.14402732 -0.14561127
-0.13302752 -0.10034059 -0.1160078 -0.032105595 0.16862366 0.03932534 -0.18794633 -0.051750828
0.028854346 -0.1288648 -0.053057104 -0.01829934 0.12675071 -0.14173383 -0.06320938 0.06121451
-0.17871037 -0.10715161 0.086428545 0.054257944 0.039987165 0.0778233 0.13126072 0.015883671
-0.15205258 -0.057147026 -0.03973829 0.18712112 0.07602522 0.1480401 -0.010446699 -0.025137909
-0.036542103 0.007974848 0.026103083 0.10263459 0.04153391 0.05442222 0.20033146 0.030888822
-0.15822609 -0.015869759 -0.087538585 -0.017424958 -0.029572457 -0.060823105 -0.09557884 -0.03419772
-0.21251278 -0.13693894 -0.005068604 -0.056216363 -0.01372522 0.023728928 -0.14290908 -0.03533242
0.15900794 -0.13349551 -0.004942442 0.16205214 -0.12713586 0.0076253177 0.13218014 -0.1546539
-0.00575744 0.09593703 -0.04840599 0.14306736 -0.0628585 0.10968774 -0.11938766 -0.06435398
-0.07509633 0.14237465 0.15390639 0.05186049 0.13840434 -0.15160987 -0.06769538 0.117905
0.09980868 0.09443603 -0.0029691707 0.0733059 0.007822281 0.034143124 -0.08430024 0.05259107
0.0402259 0.15119547 -0.0015634226 -0.16143571 0.074649125 -0.1679195 -0.15936986 -0.1406107
0.046471294 -0.077866144 -0.108604245 0.07633615 -0.09474098 0.09869858 -0.04010487 -0.15194221
0.02987259 0.044826083 -0.106696285 0.10138329 -0.1771689 -0.06924586 -0.03499149 -0.106608436
0.09828313 -0.14446697 0.14788 0.1405167 -0.07389723 0.1568477 -0.06892068 0.042820793
-0.1310976 -0.10220363 0.13234076 0.008798634 0.14385504 -0.056150235 0.07077013 0.07320841
0.09174735 -0.05586611 0.0146015175 -0.11085596 0.21180123 -0.029489448 -0.12537746 -0.041935064
0.07168529 0.080978006 0.12764657 -0.051782485 -0.022945946 0.10319072 0.13138738 -0.0330157
0.079797 -0.14414598 0.017040791 -0.05054097 0.09114315 0.1531555 -0.15285343 -0.07076075
-0.013072425 0.13699788 0.07006291 0.06435346 -0.10148529 0.17541605 0.14550003 0.10650187
0.13525857 -0.12652029 -0.15536521 -0.0029838327 0.038618226 -0.008763544 0.05688272 0.12361198
0.09876481 0.12890342 0.16885626 -0.069090195 -0.1324571 0.008180694 0.09080074 0.16058227
-0.13513252 -0.060145773 0.050633032 0.018951412 -0.13540421 0.045075733 -0.045487132 0.0075823218
00000000: 437d 0cbe 6e1a f4bd 3e66 f0bd cee9 06be
00000010: 13c7 fc3d 95b8 06bd 2adc ccbd 89c3 5a3d
00000020: 9bb3 a6bc f3e5 303d a216 08be 7dff 4cbe
00000030: 0f4f e83d f07e c33d 470f f2bc 185a 2fbe
00000040: dd7f 2ebd cf81 123d b748 f4bd 3a1a 1a3c
00000050: 45c1 21be d94f 103e 5f5c 48bc 8731 3d3e
00000060: 8256 723c 2bdf 2fbe 10fa f93c ff2c 523d
00000070: a4eb c73c cb17 11bd fb72 e2bd 12ca 11be
00000080: 7dd3 d6bd 396d 523e 2418 7dbc 3381 50be
00000090: d16f 0bbe e15c 3b3e 3871 0fbb 474b dd3d
000000a0: d526 3cbe 9a24 67bd 48ed b2bd b858 ef3d
000000b0: 4266 033e 8673 0c3e f3f7 83bb b6a1 043e
000000c0: b016 4fbe 285f 2ebd c8d0 013e 9b51 9abd
000000d0: 1620 a8bd 16a3 4e3d 09c6 5e3e a246 8e3d
000000e0: 1333 5e3d 3288 fe3d c555 da3c 61ba 6d3d
000000f0: 581e 043e 2e1d df3d b45d 2fbe 4884 1abe
00000100: 4c55 0fbe b5cc be3d 4b63 993d 80b3 30be
00000110: a896 60bc 43c7 08be e67b 13be 1f1b 15be
00000120: 5e38 08be 5e7f cdbd 7f95 edbd 2881 03bd
00000130: aeab 2c3e 9c13 213d 0175 40be adf8 53bd
00000140: f35f ec3c 22f5 03be 6852 59bd 7fe8 95bc
00000150: f0ca 013e ac22 11be eb73 81bd 11bc 7a3d
00000160: daff 36be 4e72 dbbd 7301 b13d 943d 5e3d
00000170: 95c9 233d d361 9f3d 3669 063e 791e 823c
00000180: acb3 1bbe 0013 6abd 9ec4 22bd ae9c 3f3e
00000190: 1cb3 9b3d d397 173e a228 2bbc 04ee cdbc
000001a0: 2cad 15bd f0a8 023c 22d6 d53c 1532 d23d
000001b0: 761f 2a3d d5e9 5e3d b123 4d3e 8e0a fd3c
000001c0: 0506 22be 4c01 82bc 6e47 b3bd c9be 8ebc
000001d0: f041 f2bc a621 79bd d7be c3bd e912 0cbd
000001e0: f39c 59be b939 0cbe 8816 a6bb 2143 66bd
000001f0: bfdf 60bc 2b63 c23c c256 12be bab8 10bd
00000200: fad2 223e 0cb3 08be 35f4 a1bb fff0 253e
00000210: e72f 02be cddd f93b 3b5a 073e 985d 1ebe
00000220: e8a8 bcbb a27a c43d 5c45 46bd 4080 123e
00000230: f5bb 80bd f7a3 e03d 8481 f4bd 05cc 83bd
00000240: 1bcc 99bd a9ca 113e a399 1d3e aa6b 543d
00000250: deb9 0d3e 9e3f 1bbe e0a3 8abd 2d78 f13d
00000260: 7e68 cc3d ad67 c13d 6b96 42bb 6721 963d
00000270: 0629 003c a9d9 0b3d 9ba5 acbd bc69 573d
00000280: eac3 243d fcd2 1a3e c2eb ccba 674f 25be
00000290: a4e1 983d 17f3 2bbe da31 23be 40fc 0fbe
000002a0: af58 3e3d 4978 9fbd e76b debd 2156 9c3d
000002b0: 8f07 c2bd 7b22 ca3d 0145 24bd bd96 1bbe
000002c0: 5db7 f43c 8e9b 373d 9583 dabd 0ba2 cf3d
000002d0: c46b 35be c6d0 8dbd 3d53 0fbd 8655 dabd
000002e0: aa48 c93d 26ef 13be db6d 173e 9ce3 0f3e
000002f0: 6e57 97bd af9c 203e 4926 8dbd db64 2f3d
00000300: 733e 06be 2350 d1bd 5684 073e 2528 103c
00000310: bc4e 133e cafd 65bd eeef 903d 4aee 953d
00000320: 09e6 bb3d ddd3 64bd 343b 6f3c 7308 e3bd
00000330: 6ce2 583e db93 f1bc f362 00be 1ac4 2bbd
00000340: bdcf 923d ccd7 a53d c8b5 023e df19 54bd
00000350: 23f9 bbbc a855 d33d 6a8a 063e 783b 07bd
00000360: 9c6c a33d 019b 13be 2199 8b3c 0c04 4fbd
00000370: 43a9 ba3d ccd4 1c3e 9c85 1cbe 03eb 90bd
00000380: b92d 56bc 2c49 0c3e 257d 8f3d bfcb 833d
00000390: 85d7 cfbd 44a0 333e f6fd 143e a71d da3d
000003a0: 3981 0a3e 898e 01be 0f18 1fbe 688c 43bb
000003b0: 252e 1e3d f894 0fbc dbfd 683d 4728 fd3d
000003c0: 3445 ca3d 42ff 033e a8e8 2c3e 297f 8dbd
000003d0: d6a2 07be 5108 063c bdf5 b93d ae6f 243e
000003e0: 2e60 0abe 6a5b 76bd 9564 4f3d fe3f 9b3c
000003f0: 67a7 0abe 55a1 383d b750 3abd 2075 f83b

onnx::LSTM_636 f4 [2, 256]
0.038298663 0.07972194 0.016615603 0.043337107 -0.10386719 0.011573263 -0.14360315 0.04992326
-0.03937705 0.09451597 0.17892718 0.106290415 0.01719976 0.009983422 -0.030688148 0.1953255
0.045952305 0.17066175 0.13530752 -0.073427 -0.018538402 -0.11118722 0.0023578568 0.056135938
0.06266834 0.06866451 0.054448716 -0.07118648 -0.05582952 -0.030033933 0.15104651 -0.07286769
0.1507146 0.1086345 0.16830279 0.16218343 0.14692484 0.101493835 0.078976884 0.0965348
0.15985057 -0.10481519 0.061199896 0.025759792 0.110873364 -0.018885694 0.05509395 0.013047523
-0.11468797 -0.1307593 0.11602097 -0.031500455 -0.06775973 0.22810833 0.1387808 -0.0038370995
0.127819 0.077942304 -0.05426726 -0.07086194 0.014832626 -0.0761019 0.10616844 0.20570226
0.10924035 -0.110211596 0.023743201 0.053675827 -0.08462527 0.11528664 -0.12021452 -0.12869313
0.16344061 -0.12855963 0.14609572 -0.07700655 -0.08850257 -0.062380657 -0.14685519 0.1407843
0.034494217 0.16707592 0.13676076 -0.11347499 0.0111208 0.0126197105 0.20014796 0.09522399
-0.084505476 0.056915533 0.0076505863 0.012722567 0.15182371 0.022627901 0.013948431 -0.033925448
0.1489557 -0.033404227 -0.13648406 -0.035614043 0.10869742 -0.08636814 0.077041134 0.043780647
0.031920236 -0.018917799 -0.058838703 -0.095183425 -0.08359404 0.16327499 -0.13707125 0.14001441
-0.15413423 -0.089598894 -0.08542654 -0.09717727 -0.08376009 -0.12338276 -0.12415946 -0.12540884
0.11345426 -0.17782186 -0.017833568 -0.045999803 -0.07424276 0.09180563 -0.03129014 -0.027702838
-0.024080858 -0.016159317 0.06698626 0.06450471 0.02441703 0.15300095 0.009300811 0.17690556
0.15827702 0.10120759 0.16219331 0.06282462 -0.0074489443 0.1426828 -0.048358962 0.0169414
0.14813587 -0.089171164 -0.013203938 -0.030233862 -0.022828124 0.14374988 -0.010706851 0.024830732
0.14228183 0.16498385 0.12108884 0.20918602 -0.111818366 -0.05859876 -0.0050461474 -0.04339849
-0.0008246009 0.09259125 0.043236263 0.16050307 0.18906052 -0.1164535 0.051545322 0.012591011
0.06386861 -0.0419977 0.022688938 0.04423765 -0.051361293 0.052462455 -0.043290168 0.17061307
0.07992248 0.09530254 0.10087986 -0.033833638 -0.015655247 0.12955038 0.06475434 -0.06190914
0.12208634 -0.0046674144 -0.089924835 0.059491947 0.09478535 0.13434201 0.18521903 -0.06326602
-0.030876817 -0.044654604 0.10254071 -0.099963225 0.011417752 0.15988386 0.048307598 0.08546329
-0.058298994 0.10927592 0.010529522 -0.1432271 -0.12833475 0.093641475 0.072409764 0.07540731
0.06800326 -0.14910582 0.07093471 0.05304762 0.052560594 -0.07343117 0.12934849 -0.048115537
0.0026443654 0.012888316 0.014847812 0.144615 0.06550562 -0.008955441 -0.11305507 0.025648264
0.13502808 0.09756512 -0.008259537 -0.076462634 -0.15530626 0.008575215 -0.03414948 -0.10232498
-0.1642202 0.008243634 -0.059775572 0.029811459 0.058868095 -0.008225344 -0.0852513 -0.15410487
0.16145842 -0.17759703 -0.028276788 0.0533301 0.047767732 0.13149212 0.047009464 0.08015762
0.03654135 -0.17721036 -0.025770774 0.07526746 -0.08203423 0.04601184 0.031193508 0.06627993
00000000: 0fdf 1c3d 4245 a33d 721d 883c 4082 313d
00000010: 52b8 d4bd c99d 3d3c b40c 13be 557c 4c3d
00000020: d449 21bd 9791 c13d b038 373e caae d93d
00000030: 83e6 8c3c 8291 233c b665 fbbc 6803 483e
00000040: 7c38 3c3d f4c1 2e3e 0e8e 0a3e e560 96bd
00000050: d9dd 97bc 20b6 e3bd 4686 1a3b ccee 653d
00000060: 4258 803d fb9f 8c3d 9e05 5f3d 38ca 91bd
00000070: 7fad 64bd b909 f6bc f0ab 1a3e a83b 95bd
00000080: ee54 1a3e c47b de3d 9157 2c3e 6a13 263e
00000090: 7773 163e 00dc cf3d a2be a13d 0ab4 c53d
000000a0: deaf 233e 59a9 d6bd beac 7a3d 3306 d33c
000000b0: 9311 e33d 2cb6 9abc 32aa 613d 47c5 553c
000000c0: 87e1 eabd c4e5 05be 679c ed3d 9f06 01bd
000000d0: 9dc5 8abd 3b95 693e 8e1c 0e3e d977 7bbb
000000e0: fce2 023e 37a0 9f3d 5947 5ebd 1120 91bd
000000f0: 8b04 733c 50db 9bbd d76e d93d 9da3 523e
00000100: 68b9 df3d 9eb6 e1bd 1a81 c23c 2fdb 5b3d
00000110: 0350 adbd 671b ec3d 0833 f6bd 22c8 03be
00000120: fa5c 273e 23a5 03be 1e9a 153e 9cb5 9dbd
00000130: d640 b5bd dc82 7fbd 3561 16be c229 103e
00000140: cf49 0d3d f315 2b3e 030b 0c3e 9365 e8bd
00000150: 0434 363c e7c2 4e3c 96f3 4c3e cc04 c33d
00000160: 3511 adbd 4320 693d c5b1 fa3b 5072 503c
00000170: ad77 1b3e 265e b93c f687 643c 69f5 0abd
00000180: d887 183e dfd2 08bd 7ac2 0bbe 08e0 11bd
00000190: c19c de3d c8e1 b0bd bec7 9d3d 5653 333d
000001a0: cbbe 023d 80f9 9abc da00 71bd 87ef c2bd
000001b0: 5a33 abbd 8f31 273e 685c 0cbe f05f 0f3e
000001c0: 5dd5 1dbe a07f b7bd 1cf4 aebd e004 c7bd
000001d0: 698a abbd 1ab0 fcbd 5147 febd 2d6b 00be
000001e0: b55a e83d ef16 36be b417 92bc 4a6a 3cbd
000001f0: 970c 98bd 9704 bc3d 172a 00bd 10f1 e2bc
00000200: 3845 c5bc 8b60 84bc 1830 893d 0c1b 843d
00000210: 3906 c83c 48ac 1c3e 6e62 183c bb26 353e
00000220: 5f13 223e ed45 cf3d 0116 263e 32aa 803d
00000230: 4616 f4bb 711b 123e 0c14 46bd b1c8 8a3c
00000240: eeb0 173e 5f9f b6bd 5455 58bc 01ad f7bc
00000250: 0c02 bbbc 2b33 133e ca6b 2fbc d269 cb3c
00000260: 54b2 113e 87f1 283e 6dfd f73d dc34 563e
00000270: 0701 e5bd 4105 70bd 275a a5bb 9dc2 31bd
00000280: 082a 58ba 7ba0 bd3d 8218 313d eb5a 243e
00000290: 1599 413e 2c7f eebd 3021 533d 874a 4e3c
000002a0: 8ccd 823d c805 2cbd 27de b93c 8a32 353d
000002b0: 3860 52bd dfe2 563d 0851 31bd 31b5 2e3e
000002c0: 66ae a33d fa2d c33d 1a9a ce3d 2495 0abd
000002d0: 6f3f 80bc dba8 043e ec9d 843d 7094 7dbd
000002e0: 6708 fa3d 1cf1 98bb 832a b8bd d4ad 733d
000002f0: d21e c23d f490 093e 0faa 3d3e 9d91 81bd
00000300: 61f1 fcbc bfe7 36bd dd00 d23d 85b9 ccbd
00000310: 8611 3b3c 98b8 233e 30de 453d 6107 af3d
00000320: edca 6ebd 0ecc df3d 0484 2c3c 20aa 12be
00000330: 2f6a 03be 1ac7 bf3d 924b 943d 266f 9a3d
00000340: 4b45 8b3d 32af 18be 3846 913d 7648 593d
00000350: c749 573d 1563 96bd ee73 043e cc14 45bd
00000360: 174d 2d3b 8429 533c 3d44 733c f415 143e
00000370: cf27 863d d8b9 12bc 6b89 e7bd 4f1c d23c
00000380: cd44 0a3e 39d0 c73d 0253 07bc 7198 9cbd
00000390: 9b08 1fbe 0f7f 0c3c 53e0 0bbd c28f d1bd
000003a0: 5729 28be 4f10 073c 3bd7 74bd 2937 f43c
000003b0: ac1f 713d 98c3 06bc 3c98 aebd abcd 1dbe
000003c0: 5b55 253e ffdb 35be b9a4 e7bc aa70 5a3d
000003d0: 19a8 433d dfa5 063e ff8c 403d ae29 a43d
000003e0: 62ac 153d a276 35be 3b1d d3bc d325 9a3d
000003f0: 9001 a8bd e976 3c3d 8789 ff3c c6bd 873d
