system_ext/etc/modem/game.tflite (tflite, 215064 bytes, 11 tensors)

sequential/dense_1/MatMul i1 [4, 64] scale=0.0053694053 zero_point=0
000000 14 14 40 10 42 16 33 1b ea 23 18 48 db e6 fe 37
       0.10738811 0.10738811 0.34364194 0.085910484 0.35438076 0.118126914 0.27383968 0.14497395 -0.118126914 0.18792918 0.12886572 0.3865972 -0.19866799 -0.13960454 -0.0107388105 0.2953173
000010 03 2a 45 ce 0f 9f ad 1c 13 c6 2a 15 ac 1e d8 4c
       0.016108215 0.22551502 0.37048897 -0.26847026 0.08054108 -0.5208323 -0.44566065 0.15034334 0.1020187 -0.3114255 0.22551502 0.11275751 -0.45103005 0.16108216 -0.21477622 0.4080748
000020 e3 aa 81 1e f5 c8 d2 4f 33 c6 46 3e ae 43 4d ab
       -0.15571275 -0.46176887 -0.68191445 0.16108216 -0.059063457 -0.3006867 -0.24699265 0.424183 0.27383968 -0.3114255 0.37585837 0.33290312 -0.44029123 0.35975015 0.4134442 -0.45639944
000030 24 5e 22 b7 25 cc db d4 3c f2 c9 03 ff 29 a9 86
       0.1932986 0.5047241 0.18255977 -0.39196658 0.19866799 -0.27920908 -0.19866799 -0.23625383 0.32216433 -0.07517167 -0.2953173 0.016108215 -0.0053694053 0.22014561 -0.46713826 -0.65506744
000040 d7 1e 9d e1 29 04 c1 0f e3 1c 08 cb d7 12 0e 44
       -0.22014561 0.16108216 -0.53157115 -0.16645156 0.22014561 0.021477621 -0.33827254 0.08054108 -0.15571275 0.15034334 0.042955242 -0.28457847 -0.22014561 0.0966493 0.07517167 0.36511955
000050 1e 31 da 23 36 53 50 d2 a9 0c 39 cb 47 ba cb cb
       0.16108216 0.26310086 -0.2040374 0.18792918 0.2899479 0.44566065 0.42955244 -0.24699265 -0.46713826 0.06443286 0.3060561 -0.28457847 0.38122776 -0.37585837 -0.28457847 -0.28457847
000060 f8 41 11 13 e2 38 3c bb ad 63 c3 42 44 c0 27 47
       -0.042955242 0.34901133 0.09127989 0.1020187 -0.16108216 0.3006867 0.32216433 -0.37048897 -0.44566065 0.53157115 -0.32753372 0.35438076 0.36511955 -0.34364194 0.20940681 0.38122776
000070 c2 08 36 4c c1 4b 19 30 a9 eb ff ac ce 15 f9 0c
       -0.33290312 0.042955242 0.2899479 0.4080748 -0.33827254 0.4027054 0.13423513 0.25773144 -0.46713826 -0.11275751 -0.0053694053 -0.45103005 -0.26847026 0.11275751 -0.037585836 0.06443286
000080 2c dd 44 1f 39 16 37 43 c2 00 03 4a 16 1c 1b e2
       0.23625383 -0.18792918 0.36511955 0.16645156 0.3060561 0.118126914 0.2953173 0.35975015 -0.33290312 0.0 0.016108215 0.39733598 0.118126914 0.15034334 0.14497395 -0.16108216
000090 d2 d2 30 f6 05 e9 9e 0b 11 8f 0c ec c2 22 00 22
       -0.24699265 -0.24699265 0.25773144 -0.053694054 0.026847027 -0.123496324 -0.5262017 0.059063457 0.09127989 -0.6067428 0.06443286 -0.10738811 -0.33290312 0.18255977 0.0 0.18255977
0000a0 0f a0 cd f6 19 06 df 43 34 be fb ef 9c d8 41 04
       0.08054108 -0.5154629 -0.27383968 -0.053694054 0.13423513 0.03221643 -0.17719038 0.35975015 0.27920908 -0.35438076 -0.026847027 -0.09127989 -0.5369405 -0.21477622 0.34901133 0.021477621
0000b0 15 14 de b5 31 20 0f ec 3f 1b fe 0f 33 fe f6 d8
       0.11275751 0.10738811 -0.18255977 -0.4027054 0.26310086 0.17182097 0.08054108 -0.10738811 0.33827254 0.14497395 -0.0107388105 0.08054108 0.27383968 -0.0107388105 -0.053694054 -0.21477622
0000c0 28 f4 fd ee 8f 20 c3 30 d8 d5 2e ec d6 f1 f0 20
       0.21477622 -0.06443286 -0.016108215 -0.0966493 -0.6067428 0.17182097 -0.32753372 0.25773144 -0.21477622 -0.23088443 0.24699265 -0.10738811 -0.22551502 -0.08054108 -0.085910484 0.17182097
0000d0 ed 1d ab d0 ce 56 52 91 ab f6 f0 1f 51 07 f7 28
       -0.1020187 0.15571275 -0.45639944 -0.25773144 -0.26847026 0.46176887 0.44029123 -0.596004 -0.45639944 -0.053694054 -0.085910484 0.16645156 0.43492183 0.037585836 -0.04832465 0.21477622
0000e0 13 43 17 31 0a 26 29 df ff 66 dd 24 3e 03 bd 51
       0.1020187 0.35975015 0.123496324 0.26310086 0.053694054 0.2040374 0.22014561 -0.17719038 -0.0053694053 0.54767936 -0.18792918 0.1932986 0.33290312 0.016108215 -0.35975015 0.43492183
0000f0 94 11 17 52 ee 5a f7 17 c3 14 18 eb 27 98 12 15
       -0.5798958 0.09127989 0.123496324 0.44029123 -0.0966493 0.48324648 -0.04832465 0.123496324 -0.32753372 0.10738811 0.12886572 -0.11275751 0.20940681 -0.55841815 0.0966493 0.11275751

sequential/dense/MatMul i1 [64, 128] scale=0.0021718533 zero_point=0
000000 b0 14 bb cd b7 fc ae 1a 3b e7 23 13 32 4b 04 17
       -0.17374827 0.043437067 -0.14985788 -0.11076452 -0.15854529 -0.008687413 -0.17809197 0.056468185 0.12813935 -0.054296333 0.07601487 0.041265212 0.10859267 0.162889 0.008687413 0.049952626
000010 07 43 df f5 d8 04 15 ff 4c c4 27 16 24 17 fd 09
       0.015202973 0.14551418 -0.07167116 -0.023890387 -0.086874135 0.008687413 0.04560892 -0.0021718533 0.16506085 -0.1303112 0.08470228 0.047780775 0.07818672 0.049952626 -0.0065155597 0.01954668
000020 b3 23 1a c1 d4 e4 dc 3f 41 f0 12 f7 1f 18 fc b0
       -0.1672327 0.07601487 0.056468185 -0.13682675 -0.09556155 -0.060811892 -0.07818672 0.13682675 0.14117047 -0.034749653 0.03909336 -0.01954668 0.067327455 0.052124478 -0.008687413 -0.17374827
000030 2b ed c2 b0 4d db f9 b2 03 a5 f9 fa eb af f1 c9
       0.09338969 -0.041265212 -0.13465491 -0.17374827 0.1672327 -0.08035857 -0.015202973 -0.16940457 0.0065155597 -0.19763865 -0.015202973 -0.0130311195 -0.04560892 -0.17592011 -0.0325778 -0.11945193
000040 eb 36 21 05 33 0c 33 0d 46 ba 11 e2 ea d9 c8 f1
       -0.04560892 0.11728008 0.07167116 0.010859267 0.11076452 0.026062239 0.11076452 0.028234093 0.15202974 -0.15202974 0.036921505 -0.0651556 -0.047780775 -0.08470228 -0.121623784 -0.0325778
000050 11 da 11 48 c8 10 37 af b1 32 03 4d 1e 34 fc 16
       0.036921505 -0.082530424 0.036921505 0.15637344 -0.121623784 0.034749653 0.11945193 -0.17592011 -0.17157641 0.10859267 0.0065155597 0.1672327 0.0651556 0.11293637 -0.008687413 0.047780775
000060 1c 07 e7 b5 b2 ce be ce df 25 2b 3b 2a 09 48 e4
       0.060811892 0.015202973 -0.054296333 -0.162889 -0.16940457 -0.10859267 -0.14334232 -0.10859267 -0.07167116 0.08035857 0.09338969 0.12813935 0.09121784 0.01954668 0.15637344 -0.060811892
000070 15 d2 c3 12 eb 00 ee e9 db 26 c8 be e8 af f0 c6
       0.04560892 -0.09990525 -0.13248305 0.03909336 -0.04560892 0.0 -0.03909336 -0.049952626 -0.08035857 0.082530424 -0.121623784 -0.14334232 -0.052124478 -0.17592011 -0.034749653 -0.12596749
000080 32 34 10 c6 ce cd ac 30 fa 34 44 b3 09 ce 1c 17
       0.10859267 0.11293637 0.034749653 -0.12596749 -0.10859267 -0.11076452 -0.18243568 0.104248956 -0.0130311195 0.11293637 0.14768602 -0.1672327 0.01954668 -0.10859267 0.060811892 0.049952626
000090 0d 0c b3 bd 16 26 de d2 ed e7 31 3f fa c4 d7 60
       0.028234093 0.026062239 -0.1672327 -0.14551418 0.047780775 0.082530424 -0.07384301 -0.09990525 -0.041265212 -0.054296333 0.106420815 0.13682675 -0.0130311195 -0.1303112 -0.08904599 0.20849791
0000a0 b7 27 3f 20 d6 42 46 ea fb 32 39 ed 1b dd 2e 2e
       -0.15854529 0.08470228 0.13682675 0.06949931 -0.09121784 0.14334232 0.15202974 -0.047780775 -0.010859267 0.10859267 0.123795636 -0.041265212 0.05864004 -0.07601487 0.09990525 0.09990525
0000b0 cc c2 b9 d3 47 c6 15 1e 2a b9 3d 0b 19 e4 22 4b
       -0.11293637 -0.13465491 -0.15420158 -0.0977334 0.15420158 -0.12596749 0.04560892 0.0651556 0.09121784 -0.15420158 0.13248305 0.023890387 0.054296333 -0.060811892 0.07384301 0.162889
0000c0 ea 17 ca 02 38 f3 01 c7 0f 41 e3 a3 e1 e9 4c 33
       -0.047780775 0.049952626 -0.11728008 0.0043437066 0.121623784 -0.028234093 0.0021718533 -0.123795636 0.0325778 0.14117047 -0.062983744 -0.20198236 -0.067327455 -0.049952626 0.16506085 0.11076452
0000d0 3a 05 29 0e 4c 27 d3 10 e1 e7 f9 0d d1 c3 e0 b3
       0.12596749 0.010859267 0.08904599 0.030405946 0.16506085 0.08470228 -0.0977334 0.034749653 -0.067327455 -0.054296333 -0.015202973 0.028234093 -0.102077104 -0.13248305 -0.06949931 -0.1672327
0000e0 48 e1 29 28 23 32 0f 00 d6 d4 e9 af 57 e7 f5 b5
       0.15637344 -0.067327455 0.08904599 0.086874135 0.07601487 0.10859267 0.0325778 0.0 -0.09121784 -0.09556155 -0.049952626 -0.17592011 0.18895124 -0.054296333 -0.023890387 -0.162889
0000f0 14 f0 ec 0c 21 00 cc fc 2b c7 b3 12 13 e6 c1 e4
       0.043437067 -0.034749653 -0.043437067 0.026062239 0.07167116 0.0 -0.11293637 -0.008687413 0.09338969 -0.123795636 -0.1672327 0.03909336 0.041265212 -0.056468185 -0.13682675 -0.060811892

sequential/conv1d_8/Conv1D i1 [64, 1, 21, 48]
000000 56 0a 03 9a a1 2b db be 24 c8 c1 3f 17 2b 57 37
       86 10 3 -102 -95 43 -37 -66 36 -56 -63 63 23 43 87 55
000010 60 65 bf 30 9d ad 52 b0 0b b7 f1 e0 37 c6 b2 f2
       96 101 -65 48 -99 -83 82 -80 11 -73 -15 -32 55 -58 -78 -14
000020 35 2f b1 25 f4 ee 15 c6 ec e4 fa 95 4b 97 10 c9
       53 47 -79 37 -12 -18 21 -58 -20 -28 -6 -107 75 -105 16 -55
000030 42 5b fa b6 26 dc bd 60 b9 ad 34 a8 fb 59 05 a8
       66 91 -6 -74 38 -36 -67 96 -71 -83 52 -88 -5 89 5 -88
000040 b9 df 39 c2 b9 fd cb 11 fb a5 3f 1a 64 10 d7 bd
       -71 -33 57 -62 -71 -3 -53 17 -5 -91 63 26 100 16 -41 -67
000050 3f 58 03 b9 10 0c bd 1d 17 bd db 0a a4 9d 09 32
       63 88 3 -71 16 12 -67 29 23 -67 -37 10 -92 -99 9 50
000060 3e e6 1a c4 13 44 f8 13 fa cd 9b 43 14 d5 16 37
       62 -26 26 -60 19 68 -8 19 -6 -51 -101 67 20 -43 22 55
000070 2c 94 2d 3f b2 95 bd 5e 53 18 52 db be 28 c3 a7
       44 -108 45 63 -78 -107 -67 94 83 24 82 -37 -66 40 -61 -89
000080 61 55 fe c4 f4 6d d5 be ed 18 9e d2 13 d5 00 d0
       97 85 -2 -60 -12 109 -43 -66 -19 24 -98 -46 19 -43 0 -48
000090 0f ce 61 3f 13 5d 41 2a 23 d4 cd 5b 3f 6c bd 53
       15 -50 97 63 19 93 65 42 35 -44 -51 91 63 108 -67 83
0000a0 e4 08 6e c7 b5 c1 a8 56 94 d2 17 aa bc d7 ff b5
       -28 8 110 -57 -75 -63 -88 86 -108 -46 23 -86 -68 -41 -1 -75
0000b0 f4 f5 5f 6e cb b2 99 4b 95 5d be 47 15 0a 32 cb
       -12 -11 95 110 -53 -78 -103 75 -107 93 -66 71 21 10 50 -53
0000c0 a1 d5 c9 68 33 f1 51 2a 44 d2 67 99 9c 2e ec 54
       -95 -43 -55 104 51 -15 81 42 68 -46 103 -103 -100 46 -20 84
0000d0 38 ee ac 9e 33 58 12 22 e0 ff 3b ef c9 9c f0 e2
       56 -18 -84 -98 51 88 18 34 -32 -1 59 -17 -55 -100 -16 -30
0000e0 a2 bb 9f 41 25 67 be 2d 50 d9 1b e0 fd 97 fd 0a
       -94 -69 -97 65 37 103 -66 45 80 -39 27 -32 -3 -105 -3 10
0000f0 fe db 55 0a d2 15 28 d4 4c 4f 07 c4 d1 0b 16 f2
       -2 -37 85 10 -46 21 40 -44 76 79 7 -60 -47 11 22 -14

sequential/conv1d_7/Conv1D i1 [48, 1, 21, 48]
000000 b5 2b 10 33 b1 b4 c0 ec ba b9 2d 46 cc 52 f8 00
       -75 43 16 51 -79 -76 -64 -20 -70 -71 45 70 -52 82 -8 0
000010 c1 3d 45 c0 d4 d4 eb ce c0 4b 29 25 ce bf db b8
       -63 61 69 -64 -44 -44 -21 -50 -64 75 41 37 -50 -65 -37 -72
000020 ad c3 c2 e4 3d 48 bc 31 13 d0 b2 cc ae e5 22 29
       -83 -61 -62 -28 61 72 -68 49 19 -48 -78 -52 -82 -27 34 41
000030 dd ad 35 e2 51 fe d6 d5 eb b0 06 e7 f7 f0 39 43
       -35 -83 53 -30 81 -2 -42 -43 -21 -80 6 -25 -9 -16 57 67
000040 38 fa f9 b6 d9 31 4b 45 dc 11 20 27 4a 40 1d e4
       56 -6 -7 -74 -39 49 75 69 -36 17 32 39 74 64 29 -28
000050 19 31 be 2e 17 ed b8 4b ba f0 f6 22 3b 4f 18 e8
       25 49 -66 46 23 -19 -72 75 -70 -16 -10 34 59 79 24 -24
000060 0e 4e 4c 12 08 2f b8 0d 0b e6 27 1d b9 d0 f2 b5
       14 78 76 18 8 47 -72 13 11 -26 39 29 -71 -48 -14 -75
000070 b8 0a ee 34 02 17 ad fc 00 31 c3 0f 02 46 3b 4d
       -72 10 -18 52 2 23 -83 -4 0 49 -61 15 2 70 59 77
000080 2b 08 1c 13 ac 0a f2 2d 1b 33 02 f5 10 08 ed 13
       43 8 28 19 -84 10 -14 45 27 51 2 -11 16 8 -19 19
000090 2d 2d 0a f6 e4 f3 46 f7 42 be 19 b9 3a df fd 35
       45 45 10 -10 -28 -13 70 -9 66 -66 25 -71 58 -33 -3 53
0000a0 ad 2a fd cb b7 ef 28 b5 f7 42 e9 26 50 54 cb 05
       -83 42 -3 -53 -73 -17 40 -75 -9 66 -23 38 80 84 -53 5
0000b0 02 be 1f ea 2f cc 50 4d 09 e1 ad 20 0a 04 3d 35
       2 -66 31 -22 47 -52 80 77 9 -31 -83 32 10 4 61 53
0000c0 24 39 e7 46 ac 4b bc d9 d7 49 b9 c1 b0 0f 1c 4e
       36 57 -25 70 -84 75 -68 -39 -41 73 -71 -63 -80 15 28 78
0000d0 2b 26 05 e1 d3 cf 13 4e 48 26 11 2c 2c f0 e0 48
       43 38 5 -31 -45 -49 19 78 72 38 17 44 44 -16 -32 72
0000e0 ba de 06 b3 fc 54 ab b6 e1 c1 43 ed dc dd be 43
       -70 -34 6 -77 -4 84 -85 -74 -31 -63 67 -19 -36 -35 -66 67
0000f0 4a b0 22 0a e9 f9 fa 31 15 b7 27 0a 31 c8 b2 b9
       74 -80 34 10 -23 -7 -6 49 21 -73 39 10 49 -56 -78 -71

sequential/conv1d_6/Conv1D i1 [48, 1, 17, 32]
000000 fb 4b 0a 07 42 fd 49 f1 18 35 bf b5 19 c0 ca aa
       -5 75 10 7 66 -3 73 -15 24 53 -65 -75 25 -64 -54 -86
000010 f7 c0 be 27 e6 17 15 35 4e d5 1a c3 3b ab 0f 30
       -9 -64 -66 39 -26 23 21 53 78 -43 26 -61 59 -85 15 48
000020 27 c5 c6 2a b0 14 dc 53 ca e6 34 26 bb 3f 56 05
       39 -59 -58 42 -80 20 -36 83 -54 -26 52 38 -69 63 86 5
000030 eb eb b0 54 b0 09 f9 48 3c c3 ce 53 02 2e b4 2e
       -21 -21 -80 84 -80 9 -7 72 60 -61 -50 83 2 46 -76 46
000040 2c ad d7 ef 00 c8 d7 46 ec 14 cd b2 37 f1 c2 04
       44 -83 -41 -17 0 -56 -41 70 -20 20 -51 -78 55 -15 -62 4
000050 b7 c6 54 dd dc 2b 56 51 d1 f1 56 4a 1b 10 4c 0f
       -73 -58 84 -35 -36 43 86 81 -47 -15 86 74 27 16 76 15
000060 34 32 54 cd 54 44 09 db b1 0c ce be c3 dd 19 ae
       52 50 84 -51 84 68 9 -37 -79 12 -50 -66 -61 -35 25 -82
000070 10 45 bc de 37 b3 11 b6 36 0d 3a d1 f2 e7 d4 cf
       16 69 -68 -34 55 -77 17 -74 54 13 58 -47 -14 -25 -44 -49
000080 ea 08 c2 e4 ef dd 2d c5 ba 47 32 1e ac df 51 b5
       -22 8 -62 -28 -17 -35 45 -59 -70 71 50 30 -84 -33 81 -75
000090 01 bf cf f3 3a 2f f3 ee b6 39 d5 27 46 36 f3 2f
       1 -65 -49 -13 58 47 -13 -18 -74 57 -43 39 70 54 -13 47
0000a0 ef ee e6 fc b8 0c 4b 1c b2 14 b7 da bf 42 c5 b2
       -17 -18 -26 -4 -72 12 75 28 -78 20 -73 -38 -65 66 -59 -78
0000b0 33 dc f7 ac 05 fd fe d0 3a 13 d3 40 34 30 25 ae
       51 -36 -9 -84 5 -3 -2 -48 58 19 -45 64 52 48 37 -82
0000c0 f3 2b db 2f f1 e0 d1 23 30 85 f2 4d f1 de 4e 28
       -13 43 -37 47 -15 -32 -47 35 48 -123 -14 77 -15 -34 78 40
0000d0 1b 35 44 cc a2 29 a1 02 42 38 11 dd 31 a3 1d e9
       27 53 68 -52 -94 41 -95 2 66 56 17 -35 49 -93 29 -23
0000e0 61 4f 85 19 59 f5 38 df 08 d4 3c ee e6 3a 1c 05
       97 79 -123 25 89 -11 56 -33 8 -44 60 -18 -26 58 28 5
0000f0 08 2f 2d e4 c5 ba d5 bd cd f1 a5 19 fd 01 ca f2
       8 47 45 -28 -59 -70 -43 -67 -51 -15 -91 25 -3 1 -54 -14

sequential/conv1d_5/Conv1D i1 [32, 1, 17, 32]
000000 f1 2f f3 f9 e8 d3 ca e0 e6 d8 23 f5 0f 2e f7 ee
       -15 47 -13 -7 -24 -45 -54 -32 -26 -40 35 -11 15 46 -9 -18
000010 d4 09 b6 16 e6 38 0d 15 d1 d4 1b fb 2d 09 d5 e9
       -44 9 -74 22 -26 56 13 21 -47 -44 27 -5 45 9 -43 -23
000020 e0 f9 fe 0b f9 37 1a e7 2d fa ad d9 42 dc fc fc
       -32 -7 -2 11 -7 55 26 -25 45 -6 -83 -39 66 -36 -4 -4
000030 21 31 35 2b eb ce 0c 33 ee 0d 10 29 f8 27 2f 32
       33 49 53 43 -21 -50 12 51 -18 13 16 41 -8 39 47 50
000040 19 ff 05 f4 f3 0a f6 33 29 10 d0 e3 cc f8 d3 2f
       25 -1 5 -12 -13 10 -10 51 41 16 -48 -29 -52 -8 -45 47
000050 02 02 dd d6 f0 e2 40 3b 0e 0f 37 16 07 3e 61 3b
       2 2 -35 -42 -16 -30 64 59 14 15 55 22 7 62 97 59
000060 09 f0 1f f2 47 ec 34 50 dd 42 d7 10 b6 0e 11 21
       9 -16 31 -14 71 -20 52 80 -35 66 -41 16 -74 14 17 33
000070 0a 0d 1d ce 35 d5 28 07 38 e3 fa de f2 0e 36 f3
       10 13 29 -50 53 -43 40 7 56 -29 -6 -34 -14 14 54 -13
000080 c9 2f b2 3b 14 07 2d d0 42 fd 2a f9 1a f0 08 f5
       -55 47 -78 59 20 7 45 -48 66 -3 42 -7 26 -16 8 -11
000090 04 d2 0a ec 1d f0 18 e7 3f 1f cf e7 0e c5 4c 08
       4 -46 10 -20 29 -16 24 -25 63 31 -49 -25 14 -59 76 8
0000a0 be 2e 1b e5 c5 e1 38 a9 f7 1c 41 28 c1 25 36 dc
       -66 46 27 -27 -59 -31 56 -87 -9 28 65 40 -63 37 54 -36
0000b0 f3 ec 4d 15 28 df 00 ef 23 1a d1 0c 45 c5 e1 23
       -13 -20 77 21 40 -33 0 -17 35 26 -47 12 69 -59 -31 35
0000c0 2b 23 44 13 ce fc 14 cf b7 bf 0d 08 ac ea e2 f1
       43 35 68 19 -50 -4 20 -49 -73 -65 13 8 -84 -22 -30 -15
0000d0 f2 ce d3 c0 d6 40 13 34 f2 d1 c1 3c cb cb 23 cb
       -14 -50 -45 -64 -42 64 19 52 -14 -47 -63 60 -53 -53 35 -53
0000e0 49 25 18 6d 01 43 14 f5 16 d3 2f fb a6 81 11 f8
       73 37 24 109 1 67 20 -11 22 -45 47 -5 -90 -127 17 -8
0000f0 10 e5 24 41 10 3d 1b d6 d2 f0 38 d4 ff fb c6 f0
       16 -27 36 65 16 61 27 -42 -46 -16 56 -44 -1 -5 -58 -16

sequential/conv1d_4/Conv1D i1 [32, 1, 15, 24]
000000 2b dc 05 62 3e 12 12 20 56 2f e5 21 d5 0c 29 4d
       43 -36 5 98 62 18 18 32 86 47 -27 33 -43 12 41 77
000010 0c 4c 17 3a 3c 2b fd 27 01 e5 06 2d 22 ed ff 05
       12 76 23 58 60 43 -3 39 1 -27 6 45 34 -19 -1 5
000020 2c 1e fc e3 c7 1e e0 02 e6 49 ec 4f 36 54 e7 e7
       44 30 -4 -29 -57 30 -32 2 -26 73 -20 79 54 84 -25 -25
000030 23 20 06 0d 31 d8 fa 1b 79 e5 09 08 df 00 db 1b
       35 32 6 13 49 -40 -6 27 121 -27 9 8 -33 0 -37 27
000040 13 42 01 2e 2e 16 da e4 18 35 19 29 cd f8 f8 f6
       19 66 1 46 46 22 -38 -28 24 53 25 41 -51 -8 -8 -10
000050 f4 dc f6 c7 e5 08 dc 02 f5 35 00 22 09 32 10 1a
       -12 -36 -10 -57 -27 8 -36 2 -11 53 0 34 9 50 16 26
000060 dc f8 18 10 d3 02 ec 28 d8 03 df 12 e6 1d 1c 09
       -36 -8 24 16 -45 2 -20 40 -40 3 -33 18 -26 29 28 9
000070 d7 da 15 f0 08 12 0c d2 bd 16 19 19 d0 15 06 f8
       -41 -38 21 -16 8 18 12 -46 -67 22 25 25 -48 21 6 -8
000080 15 ee 13 2c df 1f 19 1b f9 ca 0b fa 0f d3 e7 e1
       21 -18 19 44 -33 31 25 27 -7 -54 11 -6 15 -45 -25 -31
000090 15 26 f1 c5 c8 ef 20 dd ff bb f0 05 fb d6 05 2d
       21 38 -15 -59 -56 -17 32 -35 -1 -69 -16 5 -5 -42 5 45
0000a0 f9 04 03 1f e3 f9 ea d4 e7 c0 fd a8 f2 e5 23 db
       -7 4 3 31 -29 -7 -22 -44 -25 -64 -3 -88 -14 -27 35 -37
0000b0 24 d5 f8 16 34 01 da 49 c3 bb 06 09 03 0d e5 fb
       36 -43 -8 22 52 1 -38 73 -61 -69 6 9 3 13 -27 -5
0000c0 d4 c7 f1 dc 81 c9 4b ed 06 03 1c df 2c e6 06 50
       -44 -57 -15 -36 -127 -55 75 -19 6 3 28 -33 44 -26 6 80
0000d0 d9 04 d1 01 03 1d f5 15 df de ee e5 c5 f6 22 02
       -39 4 -47 1 3 29 -11 21 -33 -34 -18 -27 -59 -10 34 2
0000e0 01 05 dc fe f2 ea e0 e2 04 d8 18 e5 3a e3 20 f8
       1 5 -36 -2 -14 -22 -32 -30 4 -40 24 -27 58 -29 32 -8
0000f0 ea d7 ee 35 b9 fa 24 19 ec 38 e2 ee f2 f5 1f cd
       -22 -41 -18 53 -71 -6 36 25 -20 56 -30 -18 -14 -11 31 -51

sequential/conv1d_3/Conv1D i1 [24, 1, 15, 16]
000000 33 fe fd 17 f8 15 d5 d9 28 d0 bf e1 ff eb 35 fb
       51 -2 -3 23 -8 21 -43 -39 40 -48 -65 -31 -1 -21 53 -5
000010 e5 10 05 04 f3 33 cf 20 f6 eb f7 c0 1f d4 e5 c2
       -27 16 5 4 -13 51 -49 32 -10 -21 -9 -64 31 -44 -27 -62
000020 14 fa 0b 54 e2 10 07 00 22 11 79 e1 10 f7 0b 09
       20 -6 11 84 -30 16 7 0 34 17 121 -31 16 -9 11 9
000030 c0 dc 46 03 07 1d 04 11 ca d9 69 04 13 de 0b 21
       -64 -36 70 3 7 29 4 17 -54 -39 105 4 19 -34 11 33
000040 b0 c1 2e e5 06 dc 0c 06 10 fa 15 1c 1b ca e2 c5
       -80 -63 46 -27 6 -36 12 6 16 -6 21 28 27 -54 -30 -59
000050 d8 09 f9 ca 06 ea 0e 17 ea 12 33 f8 fb f1 d9 12
       -40 9 -7 -54 6 -22 14 23 -22 18 51 -8 -5 -15 -39 18
000060 fe 17 f8 a4 cc aa f8 1a 0b 0f 0c 0f ec ee ef 11
       -2 23 -8 -92 -52 -86 -8 26 11 15 12 15 -20 -18 -17 17
000070 be e7 45 e6 e1 e5 05 00 21 f4 c0 07 0a 04 16 be
       -66 -25 69 -26 -31 -27 5 0 33 -12 -64 7 10 4 22 -66
000080 fd 0a ce dc ea e4 05 f6 1d 11 81 fa f0 1b 14 e0
       -3 10 -50 -36 -22 -28 5 -10 29 17 -127 -6 -16 27 20 -32
000090 e8 03 d8 04 e6 d0 17 f0 2b eb fb 0e 01 22 ea e3
       -24 3 -40 4 -26 -48 23 -16 43 -21 -5 14 1 34 -22 -29
0000a0 b6 00 46 d1 1c eb 55 f2 f7 c1 6a 32 0c 3e 10 fc
       -74 0 70 -47 28 -21 85 -14 -9 -63 106 50 12 62 16 -4
0000b0 f6 13 b9 b0 ec c0 03 e2 04 a1 11 4e f0 d7 03 fc
       -10 19 -71 -80 -20 -64 3 -30 4 -95 17 78 -16 -41 3 -4
0000c0 16 ea e5 d0 20 10 0c 2c 1f ad 0a e4 14 51 f7 2f
       22 -22 -27 -48 32 16 12 44 31 -83 10 -28 20 81 -9 47
0000d0 21 f9 01 bd 03 fd 1e f7 f9 16 f0 f8 da 06 24 ce
       33 -7 1 -67 3 -3 30 -9 -7 22 -16 -8 -38 6 36 -50
0000e0 f6 02 91 c9 25 b8 d1 0c 01 03 ea d1 23 f4 e1 f6
       -10 2 -111 -55 37 -72 -47 12 1 3 -22 -47 35 -12 -31 -10
0000f0 03 d8 ec c7 19 fb 04 e2 da 04 c9 0e ec ea 15 26
       3 -40 -20 -57 25 -5 4 -30 -38 4 -55 14 -20 -22 21 38

sequential/conv1d_2/Conv1D i1 [16, 1, 15, 16]
000000 00 2a 03 00 56 0a ff 10 2a 1e e8 04 ca f1 f9 61
       0 42 3 0 86 10 -1 16 42 30 -24 4 -54 -15 -7 97
000010 38 65 25 4a f6 d3 28 62 06 39 24 38 2c de 4f 52
       56 101 37 74 -10 -45 40 98 6 57 36 56 44 -34 79 82
000020 e4 33 35 2c 44 c8 34 5c dc 3a 23 7f 3d 2f 13 fd
       -28 51 53 44 68 -56 52 92 -36 58 35 127 61 47 19 -3
000030 ec 07 00 f3 21 e7 f5 18 0b f9 ee da e9 3f 15 34
       -20 7 0 -13 33 -25 -11 24 11 -7 -18 -38 -23 63 21 52
000040 29 02 fa d0 f6 ca 18 15 fa 25 e7 0a 53 d9 1f 03
       41 2 -6 -48 -10 -54 24 21 -6 37 -25 10 83 -39 31 3
000050 21 d0 d1 ea 39 da 10 37 e1 35 da c2 ce 30 ca f0
       33 -48 -47 -22 57 -38 16 55 -31 53 -38 -62 -50 48 -54 -16
000060 3a e1 fe b9 f3 2b 01 43 15 e5 0a f3 41 2f de 92
       58 -31 -2 -71 -13 43 1 67 21 -27 10 -13 65 47 -34 -110
000070 df ee f7 ba cd e7 c7 1c f2 27 fe a8 49 41 ae cf
       -33 -18 -9 -70 -51 -25 -57 28 -14 39 -2 -88 73 65 -82 -49
000080 d5 e1 d6 d6 0b 1d f2 00 0c 33 14 e4 bb 0b d6 e1
       -43 -31 -42 -42 11 29 -14 0 12 51 20 -28 -69 11 -42 -31
000090 0e b2 10 e3 f5 db 18 cd ec 1c 1a 1c 2e c2 da d9
       14 -78 16 -29 -11 -37 24 -51 -20 28 26 28 46 -62 -38 -39
0000a0 f7 d6 21 e2 d8 ca 12 da ef 1d fd 16 33 1e ec a4
       -9 -42 33 -30 -40 -54 18 -38 -17 29 -3 22 51 30 -20 -92
0000b0 c2 d9 1e f0 a8 db 38 f2 03 18 09 cf f3 10 cf b8
       -62 -39 30 -16 -88 -37 56 -14 3 24 9 -49 -13 16 -49 -72
0000c0 11 aa 19 08 9a 02 df 02 01 c1 5a 08 f7 be c0 d9
       17 -86 25 8 -102 2 -33 2 1 -63 90 8 -9 -66 -64 -39
0000d0 d8 ed d9 fa d5 11 f6 37 e9 d9 15 0e 1d d1 ec 0d
       -40 -19 -39 -6 -43 17 -10 55 -23 -39 21 14 29 -47 -20 13
0000e0 d3 9f 3d fe d6 1b f9 d0 2e 12 48 31 31 e7 04 20
       -45 -97 61 -2 -42 27 -7 -48 46 18 72 49 49 -25 4 32
0000f0 eb a2 bd cc cb ab 28 3f 3f cc b7 2f ac 10 91 d8
       -21 -94 -67 -52 -53 -85 40 63 63 -52 -73 47 -84 16 -111 -40

sequential/conv1d_1/Conv1D i1 [16, 1, 9, 10]
000000 ce c6 f6 9e 14 e7 dc f1 4c cb a6 3e c1 3a 40 d0
       -50 -58 -10 -98 20 -25 -36 -15 76 -53 -90 62 -63 58 64 -48
000010 ae c3 ee c9 e1 ce bf 1b 08 11 ab c3 f5 fe 20 a4
       -82 -61 -18 -55 -31 -50 -65 27 8 17 -85 -61 -11 -2 32 -92
000020 ec 1b c0 d4 af 11 96 ef 16 69 a4 3a 5f 54 f4 7f
       -20 27 -64 -44 -81 17 -106 -17 22 105 -92 58 95 84 -12 127
000030 32 a7 2e 03 e5 f4 34 dc b0 15 1d c6 08 ec d6 26
       50 -89 46 3 -27 -12 52 -36 -80 21 29 -58 8 -20 -42 38
000040 a3 32 cb da d3 c1 b4 86 53 2c 90 98 11 d2 d0 3a
       -93 50 -53 -38 -45 -63 -76 -122 83 44 -112 -104 17 -46 -48 58
000050 d6 9e dd b1 e5 86 a7 1a 65 e1 e1 cd e5 ea f7 b8
       -42 -98 -35 -79 -27 -122 -89 26 101 -31 -31 -51 -27 -22 -9 -72
000060 ef 14 09 dd c3 55 16 cc ee 7f 2b cf de 0e ed bb
       -17 20 9 -35 -61 85 22 -52 -18 127 43 -49 -34 14 -19 -69
000070 26 e9 e1 b5 d4 27 23 93 11 cb 0d e8 2e 40 3d be
       38 -23 -31 -75 -44 39 35 -109 17 -53 13 -24 46 64 61 -66
000080 ac dc a3 65 24 2b 3c e7 45 47 2e ea ba 00 0b 01
       -84 -36 -93 101 36 43 60 -25 69 71 46 -22 -70 0 11 1
000090 d3 17 d4 a9 f8 b1 c9 f7 49 9c a9 95 e6 bc d2 01
       -45 23 -44 -87 -8 -79 -55 -9 73 -100 -87 -107 -26 -68 -46 1
0000a0 b3 e2 02 28 f5 38 e5 b5 0a ef d8 0e 12 35 7e 0e
       -77 -30 2 40 -11 56 -27 -75 10 -17 -40 14 18 53 126 14
0000b0 45 01 3a ba 2f 9c e0 12 32 d8 11 dc 29 81 38 55
       69 1 58 -70 47 -100 -32 18 50 -40 17 -36 41 -127 56 85
0000c0 dc f6 f9 3c 14 c7 f4 2f 28 21 36 b9 02 b4 c0 01
       -36 -10 -7 60 20 -57 -12 47 40 33 54 -71 2 -76 -64 1
0000d0 f4 35 d2 7a db 0e d2 7d eb 4f 0c 17 24 4a 16 37
       -12 53 -46 122 -37 14 -46 125 -21 79 12 23 36 74 22 55
0000e0 dc 67 29 1d 03 be f0 b9 f1 8e c0 ff 33 d9 a5 fb
       -36 103 41 29 3 -66 -16 -71 -15 -114 -64 -1 51 -39 -91 -5
0000f0 e9 ab 1c 27 30 b3 28 31 fc 09 02 0e 39 d9 b1 02
       -23 -85 28 39 48 -77 40 49 -4 9 2 14 57 -39 -79 2

sequential/conv1d/Conv1D i1 [10, 1, 9, 1]
000000 81 54 5c bc fa 9c d1 c5 76 f6 fd be 0d 15 16 eb
       -127 84 92 -68 -6 -100 -47 -59 118 -10 -3 -66 13 21 22 -21
000010 7f e4 70 1c 81 d7 b4 c6 b8 00 ee 3c f3 fb 03 96
       127 -28 112 28 -127 -41 -76 -58 -72 0 -18 60 -13 -5 3 -106
000020 7f 08 04 b9 f8 fd 1f fb f4 d6 29 7e 81 0a f9 9b
       127 8 4 -71 -8 -3 31 -5 -12 -42 41 126 -127 10 -7 -101
000030 24 01 fe cf 7f 02 05 d7 17 f5 ef bf c6 7f a7 fe
       36 1 -2 -49 127 2 5 -41 23 -11 -17 -65 -58 127 -89 -2
000040 d9 0e 19 18 10 38 81 e1 33 42 e0 20 e6 23 8d 81
       -39 14 25 24 16 56 -127 -31 51 66 -32 32 -26 35 -115 -127
000050 9d e9 96 d6 f3 a4 81 52 2c 31
       -99 -23 -106 -42 -13 -92 -127 82 44 49
